program(1.0)
[buildInfo = dict<tensor<string, []>, tensor<string, []>>({{"coremlc-component-MIL", "3500.14.1"}, {"coremlc-version", "3500.32.1"}, {"coremltools-component-torch", "2.9.1"}, {"coremltools-source-dialect", "TorchScript"}, {"coremltools-version", "9.0"}})]
{
    func main<ios15>(tensor<fp32, [1, 32, 16, 16]> audio_input, tensor<fp32, [1, 6, 320, 320]> visual_input) {
            tensor<string, []> input_1_pad_type_0 = const()[name = tensor<string, []>("input_1_pad_type_0"), val = tensor<string, []>("valid")];
            tensor<int32, [2]> input_1_strides_0 = const()[name = tensor<string, []>("input_1_strides_0"), val = tensor<int32, [2]>([1, 1])];
            tensor<int32, [4]> input_1_pad_0 = const()[name = tensor<string, []>("input_1_pad_0"), val = tensor<int32, [4]>([0, 0, 0, 0])];
            tensor<int32, [2]> input_1_dilations_0 = const()[name = tensor<string, []>("input_1_dilations_0"), val = tensor<int32, [2]>([1, 1])];
            tensor<int32, []> input_1_groups_0 = const()[name = tensor<string, []>("input_1_groups_0"), val = tensor<int32, []>(1)];
            tensor<string, []> visual_input_to_fp16_dtype_0 = const()[name = tensor<string, []>("visual_input_to_fp16_dtype_0"), val = tensor<string, []>("fp16")];
            tensor<fp16, [12, 6, 1, 1]> const_25_to_fp16 = const()[name = tensor<string, []>("const_25_to_fp16"), val = tensor<fp16, [12, 6, 1, 1]>(BLOBFILE(path = tensor<string, []>("@model_path/weights/weight.bin"), offset = tensor<uint64, []>(64)))];
            tensor<fp16, [12]> const_26_to_fp16 = const()[name = tensor<string, []>("const_26_to_fp16"), val = tensor<fp16, [12]>(BLOBFILE(path = tensor<string, []>("@model_path/weights/weight.bin"), offset = tensor<uint64, []>(320)))];
            tensor<fp16, [1, 6, 320, 320]> visual_input_to_fp16 = cast(dtype = visual_input_to_fp16_dtype_0, x = visual_input)[name = tensor<string, []>("cast_2")];
            tensor<fp16, [1, 12, 320, 320]> input_3_cast_fp16 = conv(bias = const_26_to_fp16, dilations = input_1_dilations_0, groups = input_1_groups_0, pad = input_1_pad_0, pad_type = input_1_pad_type_0, strides = input_1_strides_0, weight = const_25_to_fp16, x = visual_input_to_fp16)[name = tensor<string, []>("input_3_cast_fp16")];
            tensor<fp16, [1, 12, 320, 320]> input_5_cast_fp16 = relu(x = input_3_cast_fp16)[name = tensor<string, []>("input_5_cast_fp16")];
            tensor<string, []> input_7_pad_type_0 = const()[name = tensor<string, []>("input_7_pad_type_0"), val = tensor<string, []>("custom")];
            tensor<int32, [4]> input_7_pad_0 = const()[name = tensor<string, []>("input_7_pad_0"), val = tensor<int32, [4]>([1, 1, 1, 1])];
            tensor<int32, []> input_7_groups_0 = const()[name = tensor<string, []>("input_7_groups_0"), val = tensor<int32, []>(12)];
            tensor<int32, [2]> input_7_strides_0 = const()[name = tensor<string, []>("input_7_strides_0"), val = tensor<int32, [2]>([1, 1])];
            tensor<int32, [2]> input_7_dilations_0 = const()[name = tensor<string, []>("input_7_dilations_0"), val = tensor<int32, [2]>([1, 1])];
            tensor<fp16, [12, 1, 3, 3]> const_27_to_fp16 = const()[name = tensor<string, []>("const_27_to_fp16"), val = tensor<fp16, [12, 1, 3, 3]>(BLOBFILE(path = tensor<string, []>("@model_path/weights/weight.bin"), offset = tensor<uint64, []>(448)))];
            tensor<fp16, [12]> const_28_to_fp16 = const()[name = tensor<string, []>("const_28_to_fp16"), val = tensor<fp16, [12]>(BLOBFILE(path = tensor<string, []>("@model_path/weights/weight.bin"), offset = tensor<uint64, []>(768)))];
            tensor<fp16, [1, 12, 320, 320]> input_9_cast_fp16 = conv(bias = const_28_to_fp16, dilations = input_7_dilations_0, groups = input_7_groups_0, pad = input_7_pad_0, pad_type = input_7_pad_type_0, strides = input_7_strides_0, weight = const_27_to_fp16, x = input_5_cast_fp16)[name = tensor<string, []>("input_9_cast_fp16")];
            tensor<fp16, [1, 12, 320, 320]> input_11_cast_fp16 = relu(x = input_9_cast_fp16)[name = tensor<string, []>("input_11_cast_fp16")];
            tensor<string, []> input_13_pad_type_0 = const()[name = tensor<string, []>("input_13_pad_type_0"), val = tensor<string, []>("valid")];
            tensor<int32, [2]> input_13_strides_0 = const()[name = tensor<string, []>("input_13_strides_0"), val = tensor<int32, [2]>([1, 1])];
            tensor<int32, [4]> input_13_pad_0 = const()[name = tensor<string, []>("input_13_pad_0"), val = tensor<int32, [4]>([0, 0, 0, 0])];
            tensor<int32, [2]> input_13_dilations_0 = const()[name = tensor<string, []>("input_13_dilations_0"), val = tensor<int32, [2]>([1, 1])];
            tensor<int32, []> input_13_groups_0 = const()[name = tensor<string, []>("input_13_groups_0"), val = tensor<int32, []>(1)];
            tensor<fp16, [32, 12, 1, 1]> const_29_to_fp16 = const()[name = tensor<string, []>("const_29_to_fp16"), val = tensor<fp16, [32, 12, 1, 1]>(BLOBFILE(path = tensor<string, []>("@model_path/weights/weight.bin"), offset = tensor<uint64, []>(896)))];
            tensor<fp16, [32]> const_30_to_fp16 = const()[name = tensor<string, []>("const_30_to_fp16"), val = tensor<fp16, [32]>(BLOBFILE(path = tensor<string, []>("@model_path/weights/weight.bin"), offset = tensor<uint64, []>(1728)))];
            tensor<fp16, [1, 32, 320, 320]> input_15_cast_fp16 = conv(bias = const_30_to_fp16, dilations = input_13_dilations_0, groups = input_13_groups_0, pad = input_13_pad_0, pad_type = input_13_pad_type_0, strides = input_13_strides_0, weight = const_29_to_fp16, x = input_11_cast_fp16)[name = tensor<string, []>("input_15_cast_fp16")];
            tensor<string, []> input_17_pad_type_0 = const()[name = tensor<string, []>("input_17_pad_type_0"), val = tensor<string, []>("valid")];
            tensor<int32, [2]> input_17_strides_0 = const()[name = tensor<string, []>("input_17_strides_0"), val = tensor<int32, [2]>([1, 1])];
            tensor<int32, [4]> input_17_pad_0 = const()[name = tensor<string, []>("input_17_pad_0"), val = tensor<int32, [4]>([0, 0, 0, 0])];
            tensor<int32, [2]> input_17_dilations_0 = const()[name = tensor<string, []>("input_17_dilations_0"), val = tensor<int32, [2]>([1, 1])];
            tensor<int32, []> input_17_groups_0 = const()[name = tensor<string, []>("input_17_groups_0"), val = tensor<int32, []>(1)];
            tensor<fp16, [64, 32, 1, 1]> const_31_to_fp16 = const()[name = tensor<string, []>("const_31_to_fp16"), val = tensor<fp16, [64, 32, 1, 1]>(BLOBFILE(path = tensor<string, []>("@model_path/weights/weight.bin"), offset = tensor<uint64, []>(1856)))];
            tensor<fp16, [64]> const_32_to_fp16 = const()[name = tensor<string, []>("const_32_to_fp16"), val = tensor<fp16, [64]>(BLOBFILE(path = tensor<string, []>("@model_path/weights/weight.bin"), offset = tensor<uint64, []>(6016)))];
            tensor<fp16, [1, 64, 320, 320]> input_19_cast_fp16 = conv(bias = const_32_to_fp16, dilations = input_17_dilations_0, groups = input_17_groups_0, pad = input_17_pad_0, pad_type = input_17_pad_type_0, strides = input_17_strides_0, weight = const_31_to_fp16, x = input_15_cast_fp16)[name = tensor<string, []>("input_19_cast_fp16")];
            tensor<fp16, [1, 64, 320, 320]> input_21_cast_fp16 = relu(x = input_19_cast_fp16)[name = tensor<string, []>("input_21_cast_fp16")];
            tensor<string, []> input_23_pad_type_0 = const()[name = tensor<string, []>("input_23_pad_type_0"), val = tensor<string, []>("custom")];
            tensor<int32, [4]> input_23_pad_0 = const()[name = tensor<string, []>("input_23_pad_0"), val = tensor<int32, [4]>([1, 1, 1, 1])];
            tensor<int32, [2]> input_23_strides_0 = const()[name = tensor<string, []>("input_23_strides_0"), val = tensor<int32, [2]>([2, 2])];
            tensor<int32, []> input_23_groups_0 = const()[name = tensor<string, []>("input_23_groups_0"), val = tensor<int32, []>(64)];
            tensor<int32, [2]> input_23_dilations_0 = const()[name = tensor<string, []>("input_23_dilations_0"), val = tensor<int32, [2]>([1, 1])];
            tensor<fp16, [64, 1, 3, 3]> const_33_to_fp16 = const()[name = tensor<string, []>("const_33_to_fp16"), val = tensor<fp16, [64, 1, 3, 3]>(BLOBFILE(path = tensor<string, []>("@model_path/weights/weight.bin"), offset = tensor<uint64, []>(6208)))];
            tensor<fp16, [64]> const_34_to_fp16 = const()[name = tensor<string, []>("const_34_to_fp16"), val = tensor<fp16, [64]>(BLOBFILE(path = tensor<string, []>("@model_path/weights/weight.bin"), offset = tensor<uint64, []>(7424)))];
            tensor<fp16, [1, 64, 160, 160]> input_25_cast_fp16 = conv(bias = const_34_to_fp16, dilations = input_23_dilations_0, groups = input_23_groups_0, pad = input_23_pad_0, pad_type = input_23_pad_type_0, strides = input_23_strides_0, weight = const_33_to_fp16, x = input_21_cast_fp16)[name = tensor<string, []>("input_25_cast_fp16")];
            tensor<fp16, [1, 64, 160, 160]> input_27_cast_fp16 = relu(x = input_25_cast_fp16)[name = tensor<string, []>("input_27_cast_fp16")];
            tensor<string, []> input_29_pad_type_0 = const()[name = tensor<string, []>("input_29_pad_type_0"), val = tensor<string, []>("valid")];
            tensor<int32, [2]> input_29_strides_0 = const()[name = tensor<string, []>("input_29_strides_0"), val = tensor<int32, [2]>([1, 1])];
            tensor<int32, [4]> input_29_pad_0 = const()[name = tensor<string, []>("input_29_pad_0"), val = tensor<int32, [4]>([0, 0, 0, 0])];
            tensor<int32, [2]> input_29_dilations_0 = const()[name = tensor<string, []>("input_29_dilations_0"), val = tensor<int32, [2]>([1, 1])];
            tensor<int32, []> input_29_groups_0 = const()[name = tensor<string, []>("input_29_groups_0"), val = tensor<int32, []>(1)];
            tensor<fp16, [32, 64, 1, 1]> const_35_to_fp16 = const()[name = tensor<string, []>("const_35_to_fp16"), val = tensor<fp16, [32, 64, 1, 1]>(BLOBFILE(path = tensor<string, []>("@model_path/weights/weight.bin"), offset = tensor<uint64, []>(7616)))];
            tensor<fp16, [32]> const_36_to_fp16 = const()[name = tensor<string, []>("const_36_to_fp16"), val = tensor<fp16, [32]>(BLOBFILE(path = tensor<string, []>("@model_path/weights/weight.bin"), offset = tensor<uint64, []>(11776)))];
            tensor<fp16, [1, 32, 160, 160]> input_31_cast_fp16 = conv(bias = const_36_to_fp16, dilations = input_29_dilations_0, groups = input_29_groups_0, pad = input_29_pad_0, pad_type = input_29_pad_type_0, strides = input_29_strides_0, weight = const_35_to_fp16, x = input_27_cast_fp16)[name = tensor<string, []>("input_31_cast_fp16")];
            tensor<string, []> input_33_pad_type_0 = const()[name = tensor<string, []>("input_33_pad_type_0"), val = tensor<string, []>("valid")];
            tensor<int32, [2]> input_33_strides_0 = const()[name = tensor<string, []>("input_33_strides_0"), val = tensor<int32, [2]>([1, 1])];
            tensor<int32, [4]> input_33_pad_0 = const()[name = tensor<string, []>("input_33_pad_0"), val = tensor<int32, [4]>([0, 0, 0, 0])];
            tensor<int32, [2]> input_33_dilations_0 = const()[name = tensor<string, []>("input_33_dilations_0"), val = tensor<int32, [2]>([1, 1])];
            tensor<int32, []> input_33_groups_0 = const()[name = tensor<string, []>("input_33_groups_0"), val = tensor<int32, []>(1)];
            tensor<fp16, [64, 32, 1, 1]> const_37_to_fp16 = const()[name = tensor<string, []>("const_37_to_fp16"), val = tensor<fp16, [64, 32, 1, 1]>(BLOBFILE(path = tensor<string, []>("@model_path/weights/weight.bin"), offset = tensor<uint64, []>(11904)))];
            tensor<fp16, [64]> const_38_to_fp16 = const()[name = tensor<string, []>("const_38_to_fp16"), val = tensor<fp16, [64]>(BLOBFILE(path = tensor<string, []>("@model_path/weights/weight.bin"), offset = tensor<uint64, []>(16064)))];
            tensor<fp16, [1, 64, 160, 160]> input_35_cast_fp16 = conv(bias = const_38_to_fp16, dilations = input_33_dilations_0, groups = input_33_groups_0, pad = input_33_pad_0, pad_type = input_33_pad_type_0, strides = input_33_strides_0, weight = const_37_to_fp16, x = input_31_cast_fp16)[name = tensor<string, []>("input_35_cast_fp16")];
            tensor<fp16, [1, 64, 160, 160]> input_37_cast_fp16 = relu(x = input_35_cast_fp16)[name = tensor<string, []>("input_37_cast_fp16")];
            tensor<string, []> input_39_pad_type_0 = const()[name = tensor<string, []>("input_39_pad_type_0"), val = tensor<string, []>("custom")];
            tensor<int32, [4]> input_39_pad_0 = const()[name = tensor<string, []>("input_39_pad_0"), val = tensor<int32, [4]>([1, 1, 1, 1])];
            tensor<int32, []> input_39_groups_0 = const()[name = tensor<string, []>("input_39_groups_0"), val = tensor<int32, []>(64)];
            tensor<int32, [2]> input_39_strides_0 = const()[name = tensor<string, []>("input_39_strides_0"), val = tensor<int32, [2]>([1, 1])];
            tensor<int32, [2]> input_39_dilations_0 = const()[name = tensor<string, []>("input_39_dilations_0"), val = tensor<int32, [2]>([1, 1])];
            tensor<fp16, [64, 1, 3, 3]> const_39_to_fp16 = const()[name = tensor<string, []>("const_39_to_fp16"), val = tensor<fp16, [64, 1, 3, 3]>(BLOBFILE(path = tensor<string, []>("@model_path/weights/weight.bin"), offset = tensor<uint64, []>(16256)))];
            tensor<fp16, [64]> const_40_to_fp16 = const()[name = tensor<string, []>("const_40_to_fp16"), val = tensor<fp16, [64]>(BLOBFILE(path = tensor<string, []>("@model_path/weights/weight.bin"), offset = tensor<uint64, []>(17472)))];
            tensor<fp16, [1, 64, 160, 160]> input_41_cast_fp16 = conv(bias = const_40_to_fp16, dilations = input_39_dilations_0, groups = input_39_groups_0, pad = input_39_pad_0, pad_type = input_39_pad_type_0, strides = input_39_strides_0, weight = const_39_to_fp16, x = input_37_cast_fp16)[name = tensor<string, []>("input_41_cast_fp16")];
            tensor<fp16, [1, 64, 160, 160]> input_43_cast_fp16 = relu(x = input_41_cast_fp16)[name = tensor<string, []>("input_43_cast_fp16")];
            tensor<string, []> input_45_pad_type_0 = const()[name = tensor<string, []>("input_45_pad_type_0"), val = tensor<string, []>("valid")];
            tensor<int32, [2]> input_45_strides_0 = const()[name = tensor<string, []>("input_45_strides_0"), val = tensor<int32, [2]>([1, 1])];
            tensor<int32, [4]> input_45_pad_0 = const()[name = tensor<string, []>("input_45_pad_0"), val = tensor<int32, [4]>([0, 0, 0, 0])];
            tensor<int32, [2]> input_45_dilations_0 = const()[name = tensor<string, []>("input_45_dilations_0"), val = tensor<int32, [2]>([1, 1])];
            tensor<int32, []> input_45_groups_0 = const()[name = tensor<string, []>("input_45_groups_0"), val = tensor<int32, []>(1)];
            tensor<fp16, [32, 64, 1, 1]> const_41_to_fp16 = const()[name = tensor<string, []>("const_41_to_fp16"), val = tensor<fp16, [32, 64, 1, 1]>(BLOBFILE(path = tensor<string, []>("@model_path/weights/weight.bin"), offset = tensor<uint64, []>(17664)))];
            tensor<fp16, [32]> const_42_to_fp16 = const()[name = tensor<string, []>("const_42_to_fp16"), val = tensor<fp16, [32]>(BLOBFILE(path = tensor<string, []>("@model_path/weights/weight.bin"), offset = tensor<uint64, []>(21824)))];
            tensor<fp16, [1, 32, 160, 160]> var_166_cast_fp16 = conv(bias = const_42_to_fp16, dilations = input_45_dilations_0, groups = input_45_groups_0, pad = input_45_pad_0, pad_type = input_45_pad_type_0, strides = input_45_strides_0, weight = const_41_to_fp16, x = input_43_cast_fp16)[name = tensor<string, []>("op_166_cast_fp16")];
            tensor<fp16, [1, 32, 160, 160]> input_47_cast_fp16 = add(x = input_31_cast_fp16, y = var_166_cast_fp16)[name = tensor<string, []>("input_47_cast_fp16")];
            tensor<string, []> input_49_pad_type_0 = const()[name = tensor<string, []>("input_49_pad_type_0"), val = tensor<string, []>("valid")];
            tensor<int32, [2]> input_49_strides_0 = const()[name = tensor<string, []>("input_49_strides_0"), val = tensor<int32, [2]>([1, 1])];
            tensor<int32, [4]> input_49_pad_0 = const()[name = tensor<string, []>("input_49_pad_0"), val = tensor<int32, [4]>([0, 0, 0, 0])];
            tensor<int32, [2]> input_49_dilations_0 = const()[name = tensor<string, []>("input_49_dilations_0"), val = tensor<int32, [2]>([1, 1])];
            tensor<int32, []> input_49_groups_0 = const()[name = tensor<string, []>("input_49_groups_0"), val = tensor<int32, []>(1)];
            tensor<fp16, [64, 32, 1, 1]> const_43_to_fp16 = const()[name = tensor<string, []>("const_43_to_fp16"), val = tensor<fp16, [64, 32, 1, 1]>(BLOBFILE(path = tensor<string, []>("@model_path/weights/weight.bin"), offset = tensor<uint64, []>(21952)))];
            tensor<fp16, [64]> const_44_to_fp16 = const()[name = tensor<string, []>("const_44_to_fp16"), val = tensor<fp16, [64]>(BLOBFILE(path = tensor<string, []>("@model_path/weights/weight.bin"), offset = tensor<uint64, []>(26112)))];
            tensor<fp16, [1, 64, 160, 160]> input_51_cast_fp16 = conv(bias = const_44_to_fp16, dilations = input_49_dilations_0, groups = input_49_groups_0, pad = input_49_pad_0, pad_type = input_49_pad_type_0, strides = input_49_strides_0, weight = const_43_to_fp16, x = input_47_cast_fp16)[name = tensor<string, []>("input_51_cast_fp16")];
            tensor<fp16, [1, 64, 160, 160]> input_53_cast_fp16 = relu(x = input_51_cast_fp16)[name = tensor<string, []>("input_53_cast_fp16")];
            tensor<string, []> input_55_pad_type_0 = const()[name = tensor<string, []>("input_55_pad_type_0"), val = tensor<string, []>("custom")];
            tensor<int32, [4]> input_55_pad_0 = const()[name = tensor<string, []>("input_55_pad_0"), val = tensor<int32, [4]>([1, 1, 1, 1])];
            tensor<int32, [2]> input_55_strides_0 = const()[name = tensor<string, []>("input_55_strides_0"), val = tensor<int32, [2]>([2, 2])];
            tensor<int32, []> input_55_groups_0 = const()[name = tensor<string, []>("input_55_groups_0"), val = tensor<int32, []>(64)];
            tensor<int32, [2]> input_55_dilations_0 = const()[name = tensor<string, []>("input_55_dilations_0"), val = tensor<int32, [2]>([1, 1])];
            tensor<fp16, [64, 1, 3, 3]> const_45_to_fp16 = const()[name = tensor<string, []>("const_45_to_fp16"), val = tensor<fp16, [64, 1, 3, 3]>(BLOBFILE(path = tensor<string, []>("@model_path/weights/weight.bin"), offset = tensor<uint64, []>(26304)))];
            tensor<fp16, [64]> const_46_to_fp16 = const()[name = tensor<string, []>("const_46_to_fp16"), val = tensor<fp16, [64]>(BLOBFILE(path = tensor<string, []>("@model_path/weights/weight.bin"), offset = tensor<uint64, []>(27520)))];
            tensor<fp16, [1, 64, 80, 80]> input_57_cast_fp16 = conv(bias = const_46_to_fp16, dilations = input_55_dilations_0, groups = input_55_groups_0, pad = input_55_pad_0, pad_type = input_55_pad_type_0, strides = input_55_strides_0, weight = const_45_to_fp16, x = input_53_cast_fp16)[name = tensor<string, []>("input_57_cast_fp16")];
            tensor<fp16, [1, 64, 80, 80]> input_59_cast_fp16 = relu(x = input_57_cast_fp16)[name = tensor<string, []>("input_59_cast_fp16")];
            tensor<string, []> input_61_pad_type_0 = const()[name = tensor<string, []>("input_61_pad_type_0"), val = tensor<string, []>("valid")];
            tensor<int32, [2]> input_61_strides_0 = const()[name = tensor<string, []>("input_61_strides_0"), val = tensor<int32, [2]>([1, 1])];
            tensor<int32, [4]> input_61_pad_0 = const()[name = tensor<string, []>("input_61_pad_0"), val = tensor<int32, [4]>([0, 0, 0, 0])];
            tensor<int32, [2]> input_61_dilations_0 = const()[name = tensor<string, []>("input_61_dilations_0"), val = tensor<int32, [2]>([1, 1])];
            tensor<int32, []> input_61_groups_0 = const()[name = tensor<string, []>("input_61_groups_0"), val = tensor<int32, []>(1)];
            tensor<fp16, [64, 64, 1, 1]> const_47_to_fp16 = const()[name = tensor<string, []>("const_47_to_fp16"), val = tensor<fp16, [64, 64, 1, 1]>(BLOBFILE(path = tensor<string, []>("@model_path/weights/weight.bin"), offset = tensor<uint64, []>(27712)))];
            tensor<fp16, [64]> const_48_to_fp16 = const()[name = tensor<string, []>("const_48_to_fp16"), val = tensor<fp16, [64]>(BLOBFILE(path = tensor<string, []>("@model_path/weights/weight.bin"), offset = tensor<uint64, []>(35968)))];
            tensor<fp16, [1, 64, 80, 80]> input_63_cast_fp16 = conv(bias = const_48_to_fp16, dilations = input_61_dilations_0, groups = input_61_groups_0, pad = input_61_pad_0, pad_type = input_61_pad_type_0, strides = input_61_strides_0, weight = const_47_to_fp16, x = input_59_cast_fp16)[name = tensor<string, []>("input_63_cast_fp16")];
            tensor<string, []> input_65_pad_type_0 = const()[name = tensor<string, []>("input_65_pad_type_0"), val = tensor<string, []>("valid")];
            tensor<int32, [2]> input_65_strides_0 = const()[name = tensor<string, []>("input_65_strides_0"), val = tensor<int32, [2]>([1, 1])];
            tensor<int32, [4]> input_65_pad_0 = const()[name = tensor<string, []>("input_65_pad_0"), val = tensor<int32, [4]>([0, 0, 0, 0])];
            tensor<int32, [2]> input_65_dilations_0 = const()[name = tensor<string, []>("input_65_dilations_0"), val = tensor<int32, [2]>([1, 1])];
            tensor<int32, []> input_65_groups_0 = const()[name = tensor<string, []>("input_65_groups_0"), val = tensor<int32, []>(1)];
            tensor<fp16, [128, 64, 1, 1]> const_49_to_fp16 = const()[name = tensor<string, []>("const_49_to_fp16"), val = tensor<fp16, [128, 64, 1, 1]>(BLOBFILE(path = tensor<string, []>("@model_path/weights/weight.bin"), offset = tensor<uint64, []>(36160)))];
            tensor<fp16, [128]> const_50_to_fp16 = const()[name = tensor<string, []>("const_50_to_fp16"), val = tensor<fp16, [128]>(BLOBFILE(path = tensor<string, []>("@model_path/weights/weight.bin"), offset = tensor<uint64, []>(52608)))];
            tensor<fp16, [1, 128, 80, 80]> input_67_cast_fp16 = conv(bias = const_50_to_fp16, dilations = input_65_dilations_0, groups = input_65_groups_0, pad = input_65_pad_0, pad_type = input_65_pad_type_0, strides = input_65_strides_0, weight = const_49_to_fp16, x = input_63_cast_fp16)[name = tensor<string, []>("input_67_cast_fp16")];
            tensor<fp16, [1, 128, 80, 80]> input_69_cast_fp16 = relu(x = input_67_cast_fp16)[name = tensor<string, []>("input_69_cast_fp16")];
            tensor<string, []> input_71_pad_type_0 = const()[name = tensor<string, []>("input_71_pad_type_0"), val = tensor<string, []>("custom")];
            tensor<int32, [4]> input_71_pad_0 = const()[name = tensor<string, []>("input_71_pad_0"), val = tensor<int32, [4]>([1, 1, 1, 1])];
            tensor<int32, []> input_71_groups_0 = const()[name = tensor<string, []>("input_71_groups_0"), val = tensor<int32, []>(128)];
            tensor<int32, [2]> input_71_strides_0 = const()[name = tensor<string, []>("input_71_strides_0"), val = tensor<int32, [2]>([1, 1])];
            tensor<int32, [2]> input_71_dilations_0 = const()[name = tensor<string, []>("input_71_dilations_0"), val = tensor<int32, [2]>([1, 1])];
            tensor<fp16, [128, 1, 3, 3]> const_51_to_fp16 = const()[name = tensor<string, []>("const_51_to_fp16"), val = tensor<fp16, [128, 1, 3, 3]>(BLOBFILE(path = tensor<string, []>("@model_path/weights/weight.bin"), offset = tensor<uint64, []>(52928)))];
            tensor<fp16, [128]> const_52_to_fp16 = const()[name = tensor<string, []>("const_52_to_fp16"), val = tensor<fp16, [128]>(BLOBFILE(path = tensor<string, []>("@model_path/weights/weight.bin"), offset = tensor<uint64, []>(55296)))];
            tensor<fp16, [1, 128, 80, 80]> input_73_cast_fp16 = conv(bias = const_52_to_fp16, dilations = input_71_dilations_0, groups = input_71_groups_0, pad = input_71_pad_0, pad_type = input_71_pad_type_0, strides = input_71_strides_0, weight = const_51_to_fp16, x = input_69_cast_fp16)[name = tensor<string, []>("input_73_cast_fp16")];
            tensor<fp16, [1, 128, 80, 80]> input_75_cast_fp16 = relu(x = input_73_cast_fp16)[name = tensor<string, []>("input_75_cast_fp16")];
            tensor<string, []> input_77_pad_type_0 = const()[name = tensor<string, []>("input_77_pad_type_0"), val = tensor<string, []>("valid")];
            tensor<int32, [2]> input_77_strides_0 = const()[name = tensor<string, []>("input_77_strides_0"), val = tensor<int32, [2]>([1, 1])];
            tensor<int32, [4]> input_77_pad_0 = const()[name = tensor<string, []>("input_77_pad_0"), val = tensor<int32, [4]>([0, 0, 0, 0])];
            tensor<int32, [2]> input_77_dilations_0 = const()[name = tensor<string, []>("input_77_dilations_0"), val = tensor<int32, [2]>([1, 1])];
            tensor<int32, []> input_77_groups_0 = const()[name = tensor<string, []>("input_77_groups_0"), val = tensor<int32, []>(1)];
            tensor<fp16, [64, 128, 1, 1]> const_53_to_fp16 = const()[name = tensor<string, []>("const_53_to_fp16"), val = tensor<fp16, [64, 128, 1, 1]>(BLOBFILE(path = tensor<string, []>("@model_path/weights/weight.bin"), offset = tensor<uint64, []>(55616)))];
            tensor<fp16, [64]> const_54_to_fp16 = const()[name = tensor<string, []>("const_54_to_fp16"), val = tensor<fp16, [64]>(BLOBFILE(path = tensor<string, []>("@model_path/weights/weight.bin"), offset = tensor<uint64, []>(72064)))];
            tensor<fp16, [1, 64, 80, 80]> var_266_cast_fp16 = conv(bias = const_54_to_fp16, dilations = input_77_dilations_0, groups = input_77_groups_0, pad = input_77_pad_0, pad_type = input_77_pad_type_0, strides = input_77_strides_0, weight = const_53_to_fp16, x = input_75_cast_fp16)[name = tensor<string, []>("op_266_cast_fp16")];
            tensor<fp16, [1, 64, 80, 80]> input_79_cast_fp16 = add(x = input_63_cast_fp16, y = var_266_cast_fp16)[name = tensor<string, []>("input_79_cast_fp16")];
            tensor<string, []> input_81_pad_type_0 = const()[name = tensor<string, []>("input_81_pad_type_0"), val = tensor<string, []>("valid")];
            tensor<int32, [2]> input_81_strides_0 = const()[name = tensor<string, []>("input_81_strides_0"), val = tensor<int32, [2]>([1, 1])];
            tensor<int32, [4]> input_81_pad_0 = const()[name = tensor<string, []>("input_81_pad_0"), val = tensor<int32, [4]>([0, 0, 0, 0])];
            tensor<int32, [2]> input_81_dilations_0 = const()[name = tensor<string, []>("input_81_dilations_0"), val = tensor<int32, [2]>([1, 1])];
            tensor<int32, []> input_81_groups_0 = const()[name = tensor<string, []>("input_81_groups_0"), val = tensor<int32, []>(1)];
            tensor<fp16, [128, 64, 1, 1]> const_55_to_fp16 = const()[name = tensor<string, []>("const_55_to_fp16"), val = tensor<fp16, [128, 64, 1, 1]>(BLOBFILE(path = tensor<string, []>("@model_path/weights/weight.bin"), offset = tensor<uint64, []>(72256)))];
            tensor<fp16, [128]> const_56_to_fp16 = const()[name = tensor<string, []>("const_56_to_fp16"), val = tensor<fp16, [128]>(BLOBFILE(path = tensor<string, []>("@model_path/weights/weight.bin"), offset = tensor<uint64, []>(88704)))];
            tensor<fp16, [1, 128, 80, 80]> input_83_cast_fp16 = conv(bias = const_56_to_fp16, dilations = input_81_dilations_0, groups = input_81_groups_0, pad = input_81_pad_0, pad_type = input_81_pad_type_0, strides = input_81_strides_0, weight = const_55_to_fp16, x = input_79_cast_fp16)[name = tensor<string, []>("input_83_cast_fp16")];
            tensor<fp16, [1, 128, 80, 80]> input_85_cast_fp16 = relu(x = input_83_cast_fp16)[name = tensor<string, []>("input_85_cast_fp16")];
            tensor<string, []> input_87_pad_type_0 = const()[name = tensor<string, []>("input_87_pad_type_0"), val = tensor<string, []>("custom")];
            tensor<int32, [4]> input_87_pad_0 = const()[name = tensor<string, []>("input_87_pad_0"), val = tensor<int32, [4]>([1, 1, 1, 1])];
            tensor<int32, [2]> input_87_strides_0 = const()[name = tensor<string, []>("input_87_strides_0"), val = tensor<int32, [2]>([2, 2])];
            tensor<int32, []> input_87_groups_0 = const()[name = tensor<string, []>("input_87_groups_0"), val = tensor<int32, []>(128)];
            tensor<int32, [2]> input_87_dilations_0 = const()[name = tensor<string, []>("input_87_dilations_0"), val = tensor<int32, [2]>([1, 1])];
            tensor<fp16, [128, 1, 3, 3]> const_57_to_fp16 = const()[name = tensor<string, []>("const_57_to_fp16"), val = tensor<fp16, [128, 1, 3, 3]>(BLOBFILE(path = tensor<string, []>("@model_path/weights/weight.bin"), offset = tensor<uint64, []>(89024)))];
            tensor<fp16, [128]> const_58_to_fp16 = const()[name = tensor<string, []>("const_58_to_fp16"), val = tensor<fp16, [128]>(BLOBFILE(path = tensor<string, []>("@model_path/weights/weight.bin"), offset = tensor<uint64, []>(91392)))];
            tensor<fp16, [1, 128, 40, 40]> input_89_cast_fp16 = conv(bias = const_58_to_fp16, dilations = input_87_dilations_0, groups = input_87_groups_0, pad = input_87_pad_0, pad_type = input_87_pad_type_0, strides = input_87_strides_0, weight = const_57_to_fp16, x = input_85_cast_fp16)[name = tensor<string, []>("input_89_cast_fp16")];
            tensor<fp16, [1, 128, 40, 40]> input_91_cast_fp16 = relu(x = input_89_cast_fp16)[name = tensor<string, []>("input_91_cast_fp16")];
            tensor<string, []> input_93_pad_type_0 = const()[name = tensor<string, []>("input_93_pad_type_0"), val = tensor<string, []>("valid")];
            tensor<int32, [2]> input_93_strides_0 = const()[name = tensor<string, []>("input_93_strides_0"), val = tensor<int32, [2]>([1, 1])];
            tensor<int32, [4]> input_93_pad_0 = const()[name = tensor<string, []>("input_93_pad_0"), val = tensor<int32, [4]>([0, 0, 0, 0])];
            tensor<int32, [2]> input_93_dilations_0 = const()[name = tensor<string, []>("input_93_dilations_0"), val = tensor<int32, [2]>([1, 1])];
            tensor<int32, []> input_93_groups_0 = const()[name = tensor<string, []>("input_93_groups_0"), val = tensor<int32, []>(1)];
            tensor<fp16, [128, 128, 1, 1]> const_59_to_fp16 = const()[name = tensor<string, []>("const_59_to_fp16"), val = tensor<fp16, [128, 128, 1, 1]>(BLOBFILE(path = tensor<string, []>("@model_path/weights/weight.bin"), offset = tensor<uint64, []>(91712)))];
            tensor<fp16, [128]> const_60_to_fp16 = const()[name = tensor<string, []>("const_60_to_fp16"), val = tensor<fp16, [128]>(BLOBFILE(path = tensor<string, []>("@model_path/weights/weight.bin"), offset = tensor<uint64, []>(124544)))];
            tensor<fp16, [1, 128, 40, 40]> input_95_cast_fp16 = conv(bias = const_60_to_fp16, dilations = input_93_dilations_0, groups = input_93_groups_0, pad = input_93_pad_0, pad_type = input_93_pad_type_0, strides = input_93_strides_0, weight = const_59_to_fp16, x = input_91_cast_fp16)[name = tensor<string, []>("input_95_cast_fp16")];
            tensor<string, []> input_97_pad_type_0 = const()[name = tensor<string, []>("input_97_pad_type_0"), val = tensor<string, []>("valid")];
            tensor<int32, [2]> input_97_strides_0 = const()[name = tensor<string, []>("input_97_strides_0"), val = tensor<int32, [2]>([1, 1])];
            tensor<int32, [4]> input_97_pad_0 = const()[name = tensor<string, []>("input_97_pad_0"), val = tensor<int32, [4]>([0, 0, 0, 0])];
            tensor<int32, [2]> input_97_dilations_0 = const()[name = tensor<string, []>("input_97_dilations_0"), val = tensor<int32, [2]>([1, 1])];
            tensor<int32, []> input_97_groups_0 = const()[name = tensor<string, []>("input_97_groups_0"), val = tensor<int32, []>(1)];
            tensor<fp16, [256, 128, 1, 1]> const_61_to_fp16 = const()[name = tensor<string, []>("const_61_to_fp16"), val = tensor<fp16, [256, 128, 1, 1]>(BLOBFILE(path = tensor<string, []>("@model_path/weights/weight.bin"), offset = tensor<uint64, []>(124864)))];
            tensor<fp16, [256]> const_62_to_fp16 = const()[name = tensor<string, []>("const_62_to_fp16"), val = tensor<fp16, [256]>(BLOBFILE(path = tensor<string, []>("@model_path/weights/weight.bin"), offset = tensor<uint64, []>(190464)))];
            tensor<fp16, [1, 256, 40, 40]> input_99_cast_fp16 = conv(bias = const_62_to_fp16, dilations = input_97_dilations_0, groups = input_97_groups_0, pad = input_97_pad_0, pad_type = input_97_pad_type_0, strides = input_97_strides_0, weight = const_61_to_fp16, x = input_95_cast_fp16)[name = tensor<string, []>("input_99_cast_fp16")];
            tensor<fp16, [1, 256, 40, 40]> input_101_cast_fp16 = relu(x = input_99_cast_fp16)[name = tensor<string, []>("input_101_cast_fp16")];
            tensor<string, []> input_103_pad_type_0 = const()[name = tensor<string, []>("input_103_pad_type_0"), val = tensor<string, []>("custom")];
            tensor<int32, [4]> input_103_pad_0 = const()[name = tensor<string, []>("input_103_pad_0"), val = tensor<int32, [4]>([1, 1, 1, 1])];
            tensor<int32, []> input_103_groups_0 = const()[name = tensor<string, []>("input_103_groups_0"), val = tensor<int32, []>(256)];
            tensor<int32, [2]> input_103_strides_0 = const()[name = tensor<string, []>("input_103_strides_0"), val = tensor<int32, [2]>([1, 1])];
            tensor<int32, [2]> input_103_dilations_0 = const()[name = tensor<string, []>("input_103_dilations_0"), val = tensor<int32, [2]>([1, 1])];
            tensor<fp16, [256, 1, 3, 3]> const_63_to_fp16 = const()[name = tensor<string, []>("const_63_to_fp16"), val = tensor<fp16, [256, 1, 3, 3]>(BLOBFILE(path = tensor<string, []>("@model_path/weights/weight.bin"), offset = tensor<uint64, []>(191040)))];
            tensor<fp16, [256]> const_64_to_fp16 = const()[name = tensor<string, []>("const_64_to_fp16"), val = tensor<fp16, [256]>(BLOBFILE(path = tensor<string, []>("@model_path/weights/weight.bin"), offset = tensor<uint64, []>(195712)))];
            tensor<fp16, [1, 256, 40, 40]> input_105_cast_fp16 = conv(bias = const_64_to_fp16, dilations = input_103_dilations_0, groups = input_103_groups_0, pad = input_103_pad_0, pad_type = input_103_pad_type_0, strides = input_103_strides_0, weight = const_63_to_fp16, x = input_101_cast_fp16)[name = tensor<string, []>("input_105_cast_fp16")];
            tensor<fp16, [1, 256, 40, 40]> input_107_cast_fp16 = relu(x = input_105_cast_fp16)[name = tensor<string, []>("input_107_cast_fp16")];
            tensor<string, []> input_109_pad_type_0 = const()[name = tensor<string, []>("input_109_pad_type_0"), val = tensor<string, []>("valid")];
            tensor<int32, [2]> input_109_strides_0 = const()[name = tensor<string, []>("input_109_strides_0"), val = tensor<int32, [2]>([1, 1])];
            tensor<int32, [4]> input_109_pad_0 = const()[name = tensor<string, []>("input_109_pad_0"), val = tensor<int32, [4]>([0, 0, 0, 0])];
            tensor<int32, [2]> input_109_dilations_0 = const()[name = tensor<string, []>("input_109_dilations_0"), val = tensor<int32, [2]>([1, 1])];
            tensor<int32, []> input_109_groups_0 = const()[name = tensor<string, []>("input_109_groups_0"), val = tensor<int32, []>(1)];
            tensor<fp16, [128, 256, 1, 1]> const_65_to_fp16 = const()[name = tensor<string, []>("const_65_to_fp16"), val = tensor<fp16, [128, 256, 1, 1]>(BLOBFILE(path = tensor<string, []>("@model_path/weights/weight.bin"), offset = tensor<uint64, []>(196288)))];
            tensor<fp16, [128]> const_66_to_fp16 = const()[name = tensor<string, []>("const_66_to_fp16"), val = tensor<fp16, [128]>(BLOBFILE(path = tensor<string, []>("@model_path/weights/weight.bin"), offset = tensor<uint64, []>(261888)))];
            tensor<fp16, [1, 128, 40, 40]> var_366_cast_fp16 = conv(bias = const_66_to_fp16, dilations = input_109_dilations_0, groups = input_109_groups_0, pad = input_109_pad_0, pad_type = input_109_pad_type_0, strides = input_109_strides_0, weight = const_65_to_fp16, x = input_107_cast_fp16)[name = tensor<string, []>("op_366_cast_fp16")];
            tensor<fp16, [1, 128, 40, 40]> input_111_cast_fp16 = add(x = input_95_cast_fp16, y = var_366_cast_fp16)[name = tensor<string, []>("input_111_cast_fp16")];
            tensor<string, []> input_113_pad_type_0 = const()[name = tensor<string, []>("input_113_pad_type_0"), val = tensor<string, []>("valid")];
            tensor<int32, [2]> input_113_strides_0 = const()[name = tensor<string, []>("input_113_strides_0"), val = tensor<int32, [2]>([1, 1])];
            tensor<int32, [4]> input_113_pad_0 = const()[name = tensor<string, []>("input_113_pad_0"), val = tensor<int32, [4]>([0, 0, 0, 0])];
            tensor<int32, [2]> input_113_dilations_0 = const()[name = tensor<string, []>("input_113_dilations_0"), val = tensor<int32, [2]>([1, 1])];
            tensor<int32, []> input_113_groups_0 = const()[name = tensor<string, []>("input_113_groups_0"), val = tensor<int32, []>(1)];
            tensor<fp16, [256, 128, 1, 1]> const_67_to_fp16 = const()[name = tensor<string, []>("const_67_to_fp16"), val = tensor<fp16, [256, 128, 1, 1]>(BLOBFILE(path = tensor<string, []>("@model_path/weights/weight.bin"), offset = tensor<uint64, []>(262208)))];
            tensor<fp16, [256]> const_68_to_fp16 = const()[name = tensor<string, []>("const_68_to_fp16"), val = tensor<fp16, [256]>(BLOBFILE(path = tensor<string, []>("@model_path/weights/weight.bin"), offset = tensor<uint64, []>(327808)))];
            tensor<fp16, [1, 256, 40, 40]> input_115_cast_fp16 = conv(bias = const_68_to_fp16, dilations = input_113_dilations_0, groups = input_113_groups_0, pad = input_113_pad_0, pad_type = input_113_pad_type_0, strides = input_113_strides_0, weight = const_67_to_fp16, x = input_111_cast_fp16)[name = tensor<string, []>("input_115_cast_fp16")];
            tensor<fp16, [1, 256, 40, 40]> input_117_cast_fp16 = relu(x = input_115_cast_fp16)[name = tensor<string, []>("input_117_cast_fp16")];
            tensor<string, []> input_119_pad_type_0 = const()[name = tensor<string, []>("input_119_pad_type_0"), val = tensor<string, []>("custom")];
            tensor<int32, [4]> input_119_pad_0 = const()[name = tensor<string, []>("input_119_pad_0"), val = tensor<int32, [4]>([1, 1, 1, 1])];
            tensor<int32, [2]> input_119_strides_0 = const()[name = tensor<string, []>("input_119_strides_0"), val = tensor<int32, [2]>([2, 2])];
            tensor<int32, []> input_119_groups_0 = const()[name = tensor<string, []>("input_119_groups_0"), val = tensor<int32, []>(256)];
            tensor<int32, [2]> input_119_dilations_0 = const()[name = tensor<string, []>("input_119_dilations_0"), val = tensor<int32, [2]>([1, 1])];
            tensor<fp16, [256, 1, 3, 3]> const_69_to_fp16 = const()[name = tensor<string, []>("const_69_to_fp16"), val = tensor<fp16, [256, 1, 3, 3]>(BLOBFILE(path = tensor<string, []>("@model_path/weights/weight.bin"), offset = tensor<uint64, []>(328384)))];
            tensor<fp16, [256]> const_70_to_fp16 = const()[name = tensor<string, []>("const_70_to_fp16"), val = tensor<fp16, [256]>(BLOBFILE(path = tensor<string, []>("@model_path/weights/weight.bin"), offset = tensor<uint64, []>(333056)))];
            tensor<fp16, [1, 256, 20, 20]> input_121_cast_fp16 = conv(bias = const_70_to_fp16, dilations = input_119_dilations_0, groups = input_119_groups_0, pad = input_119_pad_0, pad_type = input_119_pad_type_0, strides = input_119_strides_0, weight = const_69_to_fp16, x = input_117_cast_fp16)[name = tensor<string, []>("input_121_cast_fp16")];
            tensor<fp16, [1, 256, 20, 20]> input_123_cast_fp16 = relu(x = input_121_cast_fp16)[name = tensor<string, []>("input_123_cast_fp16")];
            tensor<string, []> input_125_pad_type_0 = const()[name = tensor<string, []>("input_125_pad_type_0"), val = tensor<string, []>("valid")];
            tensor<int32, [2]> input_125_strides_0 = const()[name = tensor<string, []>("input_125_strides_0"), val = tensor<int32, [2]>([1, 1])];
            tensor<int32, [4]> input_125_pad_0 = const()[name = tensor<string, []>("input_125_pad_0"), val = tensor<int32, [4]>([0, 0, 0, 0])];
            tensor<int32, [2]> input_125_dilations_0 = const()[name = tensor<string, []>("input_125_dilations_0"), val = tensor<int32, [2]>([1, 1])];
            tensor<int32, []> input_125_groups_0 = const()[name = tensor<string, []>("input_125_groups_0"), val = tensor<int32, []>(1)];
            tensor<fp16, [256, 256, 1, 1]> const_71_to_fp16 = const()[name = tensor<string, []>("const_71_to_fp16"), val = tensor<fp16, [256, 256, 1, 1]>(BLOBFILE(path = tensor<string, []>("@model_path/weights/weight.bin"), offset = tensor<uint64, []>(333632)))];
            tensor<fp16, [256]> const_72_to_fp16 = const()[name = tensor<string, []>("const_72_to_fp16"), val = tensor<fp16, [256]>(BLOBFILE(path = tensor<string, []>("@model_path/weights/weight.bin"), offset = tensor<uint64, []>(464768)))];
            tensor<fp16, [1, 256, 20, 20]> input_127_cast_fp16 = conv(bias = const_72_to_fp16, dilations = input_125_dilations_0, groups = input_125_groups_0, pad = input_125_pad_0, pad_type = input_125_pad_type_0, strides = input_125_strides_0, weight = const_71_to_fp16, x = input_123_cast_fp16)[name = tensor<string, []>("input_127_cast_fp16")];
            tensor<string, []> input_129_pad_type_0 = const()[name = tensor<string, []>("input_129_pad_type_0"), val = tensor<string, []>("valid")];
            tensor<int32, [2]> input_129_strides_0 = const()[name = tensor<string, []>("input_129_strides_0"), val = tensor<int32, [2]>([1, 1])];
            tensor<int32, [4]> input_129_pad_0 = const()[name = tensor<string, []>("input_129_pad_0"), val = tensor<int32, [4]>([0, 0, 0, 0])];
            tensor<int32, [2]> input_129_dilations_0 = const()[name = tensor<string, []>("input_129_dilations_0"), val = tensor<int32, [2]>([1, 1])];
            tensor<int32, []> input_129_groups_0 = const()[name = tensor<string, []>("input_129_groups_0"), val = tensor<int32, []>(1)];
            tensor<fp16, [512, 256, 1, 1]> const_73_to_fp16 = const()[name = tensor<string, []>("const_73_to_fp16"), val = tensor<fp16, [512, 256, 1, 1]>(BLOBFILE(path = tensor<string, []>("@model_path/weights/weight.bin"), offset = tensor<uint64, []>(465344)))];
            tensor<fp16, [512]> const_74_to_fp16 = const()[name = tensor<string, []>("const_74_to_fp16"), val = tensor<fp16, [512]>(BLOBFILE(path = tensor<string, []>("@model_path/weights/weight.bin"), offset = tensor<uint64, []>(727552)))];
            tensor<fp16, [1, 512, 20, 20]> input_131_cast_fp16 = conv(bias = const_74_to_fp16, dilations = input_129_dilations_0, groups = input_129_groups_0, pad = input_129_pad_0, pad_type = input_129_pad_type_0, strides = input_129_strides_0, weight = const_73_to_fp16, x = input_127_cast_fp16)[name = tensor<string, []>("input_131_cast_fp16")];
            tensor<fp16, [1, 512, 20, 20]> input_133_cast_fp16 = relu(x = input_131_cast_fp16)[name = tensor<string, []>("input_133_cast_fp16")];
            tensor<string, []> input_135_pad_type_0 = const()[name = tensor<string, []>("input_135_pad_type_0"), val = tensor<string, []>("custom")];
            tensor<int32, [4]> input_135_pad_0 = const()[name = tensor<string, []>("input_135_pad_0"), val = tensor<int32, [4]>([1, 1, 1, 1])];
            tensor<int32, []> input_135_groups_0 = const()[name = tensor<string, []>("input_135_groups_0"), val = tensor<int32, []>(512)];
            tensor<int32, [2]> input_135_strides_0 = const()[name = tensor<string, []>("input_135_strides_0"), val = tensor<int32, [2]>([1, 1])];
            tensor<int32, [2]> input_135_dilations_0 = const()[name = tensor<string, []>("input_135_dilations_0"), val = tensor<int32, [2]>([1, 1])];
            tensor<fp16, [512, 1, 3, 3]> const_75_to_fp16 = const()[name = tensor<string, []>("const_75_to_fp16"), val = tensor<fp16, [512, 1, 3, 3]>(BLOBFILE(path = tensor<string, []>("@model_path/weights/weight.bin"), offset = tensor<uint64, []>(728640)))];
            tensor<fp16, [512]> const_76_to_fp16 = const()[name = tensor<string, []>("const_76_to_fp16"), val = tensor<fp16, [512]>(BLOBFILE(path = tensor<string, []>("@model_path/weights/weight.bin"), offset = tensor<uint64, []>(737920)))];
            tensor<fp16, [1, 512, 20, 20]> input_137_cast_fp16 = conv(bias = const_76_to_fp16, dilations = input_135_dilations_0, groups = input_135_groups_0, pad = input_135_pad_0, pad_type = input_135_pad_type_0, strides = input_135_strides_0, weight = const_75_to_fp16, x = input_133_cast_fp16)[name = tensor<string, []>("input_137_cast_fp16")];
            tensor<fp16, [1, 512, 20, 20]> input_139_cast_fp16 = relu(x = input_137_cast_fp16)[name = tensor<string, []>("input_139_cast_fp16")];
            tensor<string, []> input_141_pad_type_0 = const()[name = tensor<string, []>("input_141_pad_type_0"), val = tensor<string, []>("valid")];
            tensor<int32, [2]> input_141_strides_0 = const()[name = tensor<string, []>("input_141_strides_0"), val = tensor<int32, [2]>([1, 1])];
            tensor<int32, [4]> input_141_pad_0 = const()[name = tensor<string, []>("input_141_pad_0"), val = tensor<int32, [4]>([0, 0, 0, 0])];
            tensor<int32, [2]> input_141_dilations_0 = const()[name = tensor<string, []>("input_141_dilations_0"), val = tensor<int32, [2]>([1, 1])];
            tensor<int32, []> input_141_groups_0 = const()[name = tensor<string, []>("input_141_groups_0"), val = tensor<int32, []>(1)];
            tensor<fp16, [256, 512, 1, 1]> const_77_to_fp16 = const()[name = tensor<string, []>("const_77_to_fp16"), val = tensor<fp16, [256, 512, 1, 1]>(BLOBFILE(path = tensor<string, []>("@model_path/weights/weight.bin"), offset = tensor<uint64, []>(739008)))];
            tensor<fp16, [256]> const_78_to_fp16 = const()[name = tensor<string, []>("const_78_to_fp16"), val = tensor<fp16, [256]>(BLOBFILE(path = tensor<string, []>("@model_path/weights/weight.bin"), offset = tensor<uint64, []>(1001216)))];
            tensor<fp16, [1, 256, 20, 20]> var_466_cast_fp16 = conv(bias = const_78_to_fp16, dilations = input_141_dilations_0, groups = input_141_groups_0, pad = input_141_pad_0, pad_type = input_141_pad_type_0, strides = input_141_strides_0, weight = const_77_to_fp16, x = input_139_cast_fp16)[name = tensor<string, []>("op_466_cast_fp16")];
            tensor<fp16, [1, 256, 20, 20]> input_143_cast_fp16 = add(x = input_127_cast_fp16, y = var_466_cast_fp16)[name = tensor<string, []>("input_143_cast_fp16")];
            tensor<string, []> input_145_pad_type_0 = const()[name = tensor<string, []>("input_145_pad_type_0"), val = tensor<string, []>("valid")];
            tensor<int32, [2]> input_145_strides_0 = const()[name = tensor<string, []>("input_145_strides_0"), val = tensor<int32, [2]>([1, 1])];
            tensor<int32, [4]> input_145_pad_0 = const()[name = tensor<string, []>("input_145_pad_0"), val = tensor<int32, [4]>([0, 0, 0, 0])];
            tensor<int32, [2]> input_145_dilations_0 = const()[name = tensor<string, []>("input_145_dilations_0"), val = tensor<int32, [2]>([1, 1])];
            tensor<int32, []> input_145_groups_0 = const()[name = tensor<string, []>("input_145_groups_0"), val = tensor<int32, []>(1)];
            tensor<fp16, [512, 256, 1, 1]> const_79_to_fp16 = const()[name = tensor<string, []>("const_79_to_fp16"), val = tensor<fp16, [512, 256, 1, 1]>(BLOBFILE(path = tensor<string, []>("@model_path/weights/weight.bin"), offset = tensor<uint64, []>(1001792)))];
            tensor<fp16, [512]> const_80_to_fp16 = const()[name = tensor<string, []>("const_80_to_fp16"), val = tensor<fp16, [512]>(BLOBFILE(path = tensor<string, []>("@model_path/weights/weight.bin"), offset = tensor<uint64, []>(1264000)))];
            tensor<fp16, [1, 512, 20, 20]> input_147_cast_fp16 = conv(bias = const_80_to_fp16, dilations = input_145_dilations_0, groups = input_145_groups_0, pad = input_145_pad_0, pad_type = input_145_pad_type_0, strides = input_145_strides_0, weight = const_79_to_fp16, x = input_143_cast_fp16)[name = tensor<string, []>("input_147_cast_fp16")];
            tensor<fp16, [1, 512, 20, 20]> input_149_cast_fp16 = relu(x = input_147_cast_fp16)[name = tensor<string, []>("input_149_cast_fp16")];
            tensor<string, []> input_151_pad_type_0 = const()[name = tensor<string, []>("input_151_pad_type_0"), val = tensor<string, []>("custom")];
            tensor<int32, [4]> input_151_pad_0 = const()[name = tensor<string, []>("input_151_pad_0"), val = tensor<int32, [4]>([1, 1, 1, 1])];
            tensor<int32, [2]> input_151_strides_0 = const()[name = tensor<string, []>("input_151_strides_0"), val = tensor<int32, [2]>([2, 2])];
            tensor<int32, []> input_151_groups_0 = const()[name = tensor<string, []>("input_151_groups_0"), val = tensor<int32, []>(512)];
            tensor<int32, [2]> input_151_dilations_0 = const()[name = tensor<string, []>("input_151_dilations_0"), val = tensor<int32, [2]>([1, 1])];
            tensor<fp16, [512, 1, 3, 3]> const_81_to_fp16 = const()[name = tensor<string, []>("const_81_to_fp16"), val = tensor<fp16, [512, 1, 3, 3]>(BLOBFILE(path = tensor<string, []>("@model_path/weights/weight.bin"), offset = tensor<uint64, []>(1265088)))];
            tensor<fp16, [512]> const_82_to_fp16 = const()[name = tensor<string, []>("const_82_to_fp16"), val = tensor<fp16, [512]>(BLOBFILE(path = tensor<string, []>("@model_path/weights/weight.bin"), offset = tensor<uint64, []>(1274368)))];
            tensor<fp16, [1, 512, 10, 10]> input_153_cast_fp16 = conv(bias = const_82_to_fp16, dilations = input_151_dilations_0, groups = input_151_groups_0, pad = input_151_pad_0, pad_type = input_151_pad_type_0, strides = input_151_strides_0, weight = const_81_to_fp16, x = input_149_cast_fp16)[name = tensor<string, []>("input_153_cast_fp16")];
            tensor<fp16, [1, 512, 10, 10]> input_155_cast_fp16 = relu(x = input_153_cast_fp16)[name = tensor<string, []>("input_155_cast_fp16")];
            tensor<string, []> input_157_pad_type_0 = const()[name = tensor<string, []>("input_157_pad_type_0"), val = tensor<string, []>("valid")];
            tensor<int32, [2]> input_157_strides_0 = const()[name = tensor<string, []>("input_157_strides_0"), val = tensor<int32, [2]>([1, 1])];
            tensor<int32, [4]> input_157_pad_0 = const()[name = tensor<string, []>("input_157_pad_0"), val = tensor<int32, [4]>([0, 0, 0, 0])];
            tensor<int32, [2]> input_157_dilations_0 = const()[name = tensor<string, []>("input_157_dilations_0"), val = tensor<int32, [2]>([1, 1])];
            tensor<int32, []> input_157_groups_0 = const()[name = tensor<string, []>("input_157_groups_0"), val = tensor<int32, []>(1)];
            tensor<fp16, [512, 512, 1, 1]> const_83_to_fp16 = const()[name = tensor<string, []>("const_83_to_fp16"), val = tensor<fp16, [512, 512, 1, 1]>(BLOBFILE(path = tensor<string, []>("@model_path/weights/weight.bin"), offset = tensor<uint64, []>(1275456)))];
            tensor<fp16, [512]> const_84_to_fp16 = const()[name = tensor<string, []>("const_84_to_fp16"), val = tensor<fp16, [512]>(BLOBFILE(path = tensor<string, []>("@model_path/weights/weight.bin"), offset = tensor<uint64, []>(1799808)))];
            tensor<fp16, [1, 512, 10, 10]> input_159_cast_fp16 = conv(bias = const_84_to_fp16, dilations = input_157_dilations_0, groups = input_157_groups_0, pad = input_157_pad_0, pad_type = input_157_pad_type_0, strides = input_157_strides_0, weight = const_83_to_fp16, x = input_155_cast_fp16)[name = tensor<string, []>("input_159_cast_fp16")];
            tensor<string, []> input_161_pad_type_0 = const()[name = tensor<string, []>("input_161_pad_type_0"), val = tensor<string, []>("valid")];
            tensor<int32, [2]> input_161_strides_0 = const()[name = tensor<string, []>("input_161_strides_0"), val = tensor<int32, [2]>([1, 1])];
            tensor<int32, [4]> input_161_pad_0 = const()[name = tensor<string, []>("input_161_pad_0"), val = tensor<int32, [4]>([0, 0, 0, 0])];
            tensor<int32, [2]> input_161_dilations_0 = const()[name = tensor<string, []>("input_161_dilations_0"), val = tensor<int32, [2]>([1, 1])];
            tensor<int32, []> input_161_groups_0 = const()[name = tensor<string, []>("input_161_groups_0"), val = tensor<int32, []>(1)];
            tensor<fp16, [1024, 512, 1, 1]> const_85_to_fp16 = const()[name = tensor<string, []>("const_85_to_fp16"), val = tensor<fp16, [1024, 512, 1, 1]>(BLOBFILE(path = tensor<string, []>("@model_path/weights/weight.bin"), offset = tensor<uint64, []>(1800896)))];
            tensor<fp16, [1024]> const_86_to_fp16 = const()[name = tensor<string, []>("const_86_to_fp16"), val = tensor<fp16, [1024]>(BLOBFILE(path = tensor<string, []>("@model_path/weights/weight.bin"), offset = tensor<uint64, []>(2849536)))];
            tensor<fp16, [1, 1024, 10, 10]> input_163_cast_fp16 = conv(bias = const_86_to_fp16, dilations = input_161_dilations_0, groups = input_161_groups_0, pad = input_161_pad_0, pad_type = input_161_pad_type_0, strides = input_161_strides_0, weight = const_85_to_fp16, x = input_159_cast_fp16)[name = tensor<string, []>("input_163_cast_fp16")];
            tensor<fp16, [1, 1024, 10, 10]> input_165_cast_fp16 = relu(x = input_163_cast_fp16)[name = tensor<string, []>("input_165_cast_fp16")];
            tensor<string, []> input_167_pad_type_0 = const()[name = tensor<string, []>("input_167_pad_type_0"), val = tensor<string, []>("custom")];
            tensor<int32, [4]> input_167_pad_0 = const()[name = tensor<string, []>("input_167_pad_0"), val = tensor<int32, [4]>([1, 1, 1, 1])];
            tensor<int32, []> input_167_groups_0 = const()[name = tensor<string, []>("input_167_groups_0"), val = tensor<int32, []>(1024)];
            tensor<int32, [2]> input_167_strides_0 = const()[name = tensor<string, []>("input_167_strides_0"), val = tensor<int32, [2]>([1, 1])];
            tensor<int32, [2]> input_167_dilations_0 = const()[name = tensor<string, []>("input_167_dilations_0"), val = tensor<int32, [2]>([1, 1])];
            tensor<fp16, [1024, 1, 3, 3]> const_87_to_fp16 = const()[name = tensor<string, []>("const_87_to_fp16"), val = tensor<fp16, [1024, 1, 3, 3]>(BLOBFILE(path = tensor<string, []>("@model_path/weights/weight.bin"), offset = tensor<uint64, []>(2851648)))];
            tensor<fp16, [1024]> const_88_to_fp16 = const()[name = tensor<string, []>("const_88_to_fp16"), val = tensor<fp16, [1024]>(BLOBFILE(path = tensor<string, []>("@model_path/weights/weight.bin"), offset = tensor<uint64, []>(2870144)))];
            tensor<fp16, [1, 1024, 10, 10]> input_169_cast_fp16 = conv(bias = const_88_to_fp16, dilations = input_167_dilations_0, groups = input_167_groups_0, pad = input_167_pad_0, pad_type = input_167_pad_type_0, strides = input_167_strides_0, weight = const_87_to_fp16, x = input_165_cast_fp16)[name = tensor<string, []>("input_169_cast_fp16")];
            tensor<fp16, [1, 1024, 10, 10]> input_171_cast_fp16 = relu(x = input_169_cast_fp16)[name = tensor<string, []>("input_171_cast_fp16")];
            tensor<string, []> input_173_pad_type_0 = const()[name = tensor<string, []>("input_173_pad_type_0"), val = tensor<string, []>("valid")];
            tensor<int32, [2]> input_173_strides_0 = const()[name = tensor<string, []>("input_173_strides_0"), val = tensor<int32, [2]>([1, 1])];
            tensor<int32, [4]> input_173_pad_0 = const()[name = tensor<string, []>("input_173_pad_0"), val = tensor<int32, [4]>([0, 0, 0, 0])];
            tensor<int32, [2]> input_173_dilations_0 = const()[name = tensor<string, []>("input_173_dilations_0"), val = tensor<int32, [2]>([1, 1])];
            tensor<int32, []> input_173_groups_0 = const()[name = tensor<string, []>("input_173_groups_0"), val = tensor<int32, []>(1)];
            tensor<fp16, [512, 1024, 1, 1]> const_89_to_fp16 = const()[name = tensor<string, []>("const_89_to_fp16"), val = tensor<fp16, [512, 1024, 1, 1]>(BLOBFILE(path = tensor<string, []>("@model_path/weights/weight.bin"), offset = tensor<uint64, []>(2872256)))];
            tensor<fp16, [512]> const_90_to_fp16 = const()[name = tensor<string, []>("const_90_to_fp16"), val = tensor<fp16, [512]>(BLOBFILE(path = tensor<string, []>("@model_path/weights/weight.bin"), offset = tensor<uint64, []>(3920896)))];
            tensor<fp16, [1, 512, 10, 10]> var_566_cast_fp16 = conv(bias = const_90_to_fp16, dilations = input_173_dilations_0, groups = input_173_groups_0, pad = input_173_pad_0, pad_type = input_173_pad_type_0, strides = input_173_strides_0, weight = const_89_to_fp16, x = input_171_cast_fp16)[name = tensor<string, []>("op_566_cast_fp16")];
            tensor<fp16, [1, 512, 10, 10]> x6_cast_fp16 = add(x = input_159_cast_fp16, y = var_566_cast_fp16)[name = tensor<string, []>("x6_cast_fp16")];
            tensor<string, []> input_175_pad_type_0 = const()[name = tensor<string, []>("input_175_pad_type_0"), val = tensor<string, []>("valid")];
            tensor<int32, [2]> input_175_strides_0 = const()[name = tensor<string, []>("input_175_strides_0"), val = tensor<int32, [2]>([1, 1])];
            tensor<int32, [4]> input_175_pad_0 = const()[name = tensor<string, []>("input_175_pad_0"), val = tensor<int32, [4]>([0, 0, 0, 0])];
            tensor<int32, [2]> input_175_dilations_0 = const()[name = tensor<string, []>("input_175_dilations_0"), val = tensor<int32, [2]>([1, 1])];
            tensor<int32, []> input_175_groups_0 = const()[name = tensor<string, []>("input_175_groups_0"), val = tensor<int32, []>(1)];
            tensor<string, []> audio_input_to_fp16_dtype_0 = const()[name = tensor<string, []>("audio_input_to_fp16_dtype_0"), val = tensor<string, []>("fp16")];
            tensor<fp16, [64, 32, 1, 1]> const_91_to_fp16 = const()[name = tensor<string, []>("const_91_to_fp16"), val = tensor<fp16, [64, 32, 1, 1]>(BLOBFILE(path = tensor<string, []>("@model_path/weights/weight.bin"), offset = tensor<uint64, []>(3921984)))];
            tensor<fp16, [64]> const_92_to_fp16 = const()[name = tensor<string, []>("const_92_to_fp16"), val = tensor<fp16, [64]>(BLOBFILE(path = tensor<string, []>("@model_path/weights/weight.bin"), offset = tensor<uint64, []>(3926144)))];
            tensor<fp16, [1, 32, 16, 16]> audio_input_to_fp16 = cast(dtype = audio_input_to_fp16_dtype_0, x = audio_input)[name = tensor<string, []>("cast_1")];
            tensor<fp16, [1, 64, 16, 16]> input_177_cast_fp16 = conv(bias = const_92_to_fp16, dilations = input_175_dilations_0, groups = input_175_groups_0, pad = input_175_pad_0, pad_type = input_175_pad_type_0, strides = input_175_strides_0, weight = const_91_to_fp16, x = audio_input_to_fp16)[name = tensor<string, []>("input_177_cast_fp16")];
            tensor<fp16, [1, 64, 16, 16]> input_179_cast_fp16 = relu(x = input_177_cast_fp16)[name = tensor<string, []>("input_179_cast_fp16")];
            tensor<string, []> input_181_pad_type_0 = const()[name = tensor<string, []>("input_181_pad_type_0"), val = tensor<string, []>("custom")];
            tensor<int32, [4]> input_181_pad_0 = const()[name = tensor<string, []>("input_181_pad_0"), val = tensor<int32, [4]>([1, 1, 1, 1])];
            tensor<int32, []> input_181_groups_0 = const()[name = tensor<string, []>("input_181_groups_0"), val = tensor<int32, []>(64)];
            tensor<int32, [2]> input_181_strides_0 = const()[name = tensor<string, []>("input_181_strides_0"), val = tensor<int32, [2]>([1, 1])];
            tensor<int32, [2]> input_181_dilations_0 = const()[name = tensor<string, []>("input_181_dilations_0"), val = tensor<int32, [2]>([1, 1])];
            tensor<fp16, [64, 1, 3, 3]> const_93_to_fp16 = const()[name = tensor<string, []>("const_93_to_fp16"), val = tensor<fp16, [64, 1, 3, 3]>(BLOBFILE(path = tensor<string, []>("@model_path/weights/weight.bin"), offset = tensor<uint64, []>(3926336)))];
            tensor<fp16, [64]> const_94_to_fp16 = const()[name = tensor<string, []>("const_94_to_fp16"), val = tensor<fp16, [64]>(BLOBFILE(path = tensor<string, []>("@model_path/weights/weight.bin"), offset = tensor<uint64, []>(3927552)))];
            tensor<fp16, [1, 64, 16, 16]> input_183_cast_fp16 = conv(bias = const_94_to_fp16, dilations = input_181_dilations_0, groups = input_181_groups_0, pad = input_181_pad_0, pad_type = input_181_pad_type_0, strides = input_181_strides_0, weight = const_93_to_fp16, x = input_179_cast_fp16)[name = tensor<string, []>("input_183_cast_fp16")];
            tensor<fp16, [1, 64, 16, 16]> input_185_cast_fp16 = relu(x = input_183_cast_fp16)[name = tensor<string, []>("input_185_cast_fp16")];
            tensor<string, []> input_187_pad_type_0 = const()[name = tensor<string, []>("input_187_pad_type_0"), val = tensor<string, []>("valid")];
            tensor<int32, [2]> input_187_strides_0 = const()[name = tensor<string, []>("input_187_strides_0"), val = tensor<int32, [2]>([1, 1])];
            tensor<int32, [4]> input_187_pad_0 = const()[name = tensor<string, []>("input_187_pad_0"), val = tensor<int32, [4]>([0, 0, 0, 0])];
            tensor<int32, [2]> input_187_dilations_0 = const()[name = tensor<string, []>("input_187_dilations_0"), val = tensor<int32, [2]>([1, 1])];
            tensor<int32, []> input_187_groups_0 = const()[name = tensor<string, []>("input_187_groups_0"), val = tensor<int32, []>(1)];
            tensor<fp16, [64, 64, 1, 1]> const_95_to_fp16 = const()[name = tensor<string, []>("const_95_to_fp16"), val = tensor<fp16, [64, 64, 1, 1]>(BLOBFILE(path = tensor<string, []>("@model_path/weights/weight.bin"), offset = tensor<uint64, []>(3927744)))];
            tensor<fp16, [64]> const_96_to_fp16 = const()[name = tensor<string, []>("const_96_to_fp16"), val = tensor<fp16, [64]>(BLOBFILE(path = tensor<string, []>("@model_path/weights/weight.bin"), offset = tensor<uint64, []>(3936000)))];
            tensor<fp16, [1, 64, 16, 16]> input_189_cast_fp16 = conv(bias = const_96_to_fp16, dilations = input_187_dilations_0, groups = input_187_groups_0, pad = input_187_pad_0, pad_type = input_187_pad_type_0, strides = input_187_strides_0, weight = const_95_to_fp16, x = input_185_cast_fp16)[name = tensor<string, []>("input_189_cast_fp16")];
            tensor<string, []> input_191_pad_type_0 = const()[name = tensor<string, []>("input_191_pad_type_0"), val = tensor<string, []>("valid")];
            tensor<int32, [2]> input_191_strides_0 = const()[name = tensor<string, []>("input_191_strides_0"), val = tensor<int32, [2]>([1, 1])];
            tensor<int32, [4]> input_191_pad_0 = const()[name = tensor<string, []>("input_191_pad_0"), val = tensor<int32, [4]>([0, 0, 0, 0])];
            tensor<int32, [2]> input_191_dilations_0 = const()[name = tensor<string, []>("input_191_dilations_0"), val = tensor<int32, [2]>([1, 1])];
            tensor<int32, []> input_191_groups_0 = const()[name = tensor<string, []>("input_191_groups_0"), val = tensor<int32, []>(1)];
            tensor<fp16, [128, 64, 1, 1]> const_97_to_fp16 = const()[name = tensor<string, []>("const_97_to_fp16"), val = tensor<fp16, [128, 64, 1, 1]>(BLOBFILE(path = tensor<string, []>("@model_path/weights/weight.bin"), offset = tensor<uint64, []>(3936192)))];
            tensor<fp16, [128]> const_98_to_fp16 = const()[name = tensor<string, []>("const_98_to_fp16"), val = tensor<fp16, [128]>(BLOBFILE(path = tensor<string, []>("@model_path/weights/weight.bin"), offset = tensor<uint64, []>(3952640)))];
            tensor<fp16, [1, 128, 16, 16]> input_193_cast_fp16 = conv(bias = const_98_to_fp16, dilations = input_191_dilations_0, groups = input_191_groups_0, pad = input_191_pad_0, pad_type = input_191_pad_type_0, strides = input_191_strides_0, weight = const_97_to_fp16, x = input_189_cast_fp16)[name = tensor<string, []>("input_193_cast_fp16")];
            tensor<fp16, [1, 128, 16, 16]> input_195_cast_fp16 = relu(x = input_193_cast_fp16)[name = tensor<string, []>("input_195_cast_fp16")];
            tensor<string, []> input_197_pad_type_0 = const()[name = tensor<string, []>("input_197_pad_type_0"), val = tensor<string, []>("custom")];
            tensor<int32, [4]> input_197_pad_0 = const()[name = tensor<string, []>("input_197_pad_0"), val = tensor<int32, [4]>([1, 1, 1, 1])];
            tensor<int32, []> input_197_groups_0 = const()[name = tensor<string, []>("input_197_groups_0"), val = tensor<int32, []>(128)];
            tensor<int32, [2]> input_197_strides_0 = const()[name = tensor<string, []>("input_197_strides_0"), val = tensor<int32, [2]>([1, 1])];
            tensor<int32, [2]> input_197_dilations_0 = const()[name = tensor<string, []>("input_197_dilations_0"), val = tensor<int32, [2]>([1, 1])];
            tensor<fp16, [128, 1, 3, 3]> const_99_to_fp16 = const()[name = tensor<string, []>("const_99_to_fp16"), val = tensor<fp16, [128, 1, 3, 3]>(BLOBFILE(path = tensor<string, []>("@model_path/weights/weight.bin"), offset = tensor<uint64, []>(3952960)))];
            tensor<fp16, [128]> const_100_to_fp16 = const()[name = tensor<string, []>("const_100_to_fp16"), val = tensor<fp16, [128]>(BLOBFILE(path = tensor<string, []>("@model_path/weights/weight.bin"), offset = tensor<uint64, []>(3955328)))];
            tensor<fp16, [1, 128, 16, 16]> input_199_cast_fp16 = conv(bias = const_100_to_fp16, dilations = input_197_dilations_0, groups = input_197_groups_0, pad = input_197_pad_0, pad_type = input_197_pad_type_0, strides = input_197_strides_0, weight = const_99_to_fp16, x = input_195_cast_fp16)[name = tensor<string, []>("input_199_cast_fp16")];
            tensor<fp16, [1, 128, 16, 16]> input_201_cast_fp16 = relu(x = input_199_cast_fp16)[name = tensor<string, []>("input_201_cast_fp16")];
            tensor<string, []> input_203_pad_type_0 = const()[name = tensor<string, []>("input_203_pad_type_0"), val = tensor<string, []>("valid")];
            tensor<int32, [2]> input_203_strides_0 = const()[name = tensor<string, []>("input_203_strides_0"), val = tensor<int32, [2]>([1, 1])];
            tensor<int32, [4]> input_203_pad_0 = const()[name = tensor<string, []>("input_203_pad_0"), val = tensor<int32, [4]>([0, 0, 0, 0])];
            tensor<int32, [2]> input_203_dilations_0 = const()[name = tensor<string, []>("input_203_dilations_0"), val = tensor<int32, [2]>([1, 1])];
            tensor<int32, []> input_203_groups_0 = const()[name = tensor<string, []>("input_203_groups_0"), val = tensor<int32, []>(1)];
            tensor<fp16, [128, 128, 1, 1]> const_101_to_fp16 = const()[name = tensor<string, []>("const_101_to_fp16"), val = tensor<fp16, [128, 128, 1, 1]>(BLOBFILE(path = tensor<string, []>("@model_path/weights/weight.bin"), offset = tensor<uint64, []>(3955648)))];
            tensor<fp16, [128]> const_102_to_fp16 = const()[name = tensor<string, []>("const_102_to_fp16"), val = tensor<fp16, [128]>(BLOBFILE(path = tensor<string, []>("@model_path/weights/weight.bin"), offset = tensor<uint64, []>(3988480)))];
            tensor<fp16, [1, 128, 16, 16]> input_205_cast_fp16 = conv(bias = const_102_to_fp16, dilations = input_203_dilations_0, groups = input_203_groups_0, pad = input_203_pad_0, pad_type = input_203_pad_type_0, strides = input_203_strides_0, weight = const_101_to_fp16, x = input_201_cast_fp16)[name = tensor<string, []>("input_205_cast_fp16")];
            tensor<string, []> input_207_pad_type_0 = const()[name = tensor<string, []>("input_207_pad_type_0"), val = tensor<string, []>("custom")];
            tensor<int32, [4]> input_207_pad_0 = const()[name = tensor<string, []>("input_207_pad_0"), val = tensor<int32, [4]>([1, 1, 1, 1])];
            tensor<int32, [2]> input_207_strides_0 = const()[name = tensor<string, []>("input_207_strides_0"), val = tensor<int32, [2]>([1, 1])];
            tensor<int32, [2]> input_207_dilations_0 = const()[name = tensor<string, []>("input_207_dilations_0"), val = tensor<int32, [2]>([1, 1])];
            tensor<int32, []> input_207_groups_0 = const()[name = tensor<string, []>("input_207_groups_0"), val = tensor<int32, []>(1)];
            tensor<fp16, [256, 128, 3, 3]> const_103_to_fp16 = const()[name = tensor<string, []>("const_103_to_fp16"), val = tensor<fp16, [256, 128, 3, 3]>(BLOBFILE(path = tensor<string, []>("@model_path/weights/weight.bin"), offset = tensor<uint64, []>(3988800)))];
            tensor<fp16, [256]> const_104_to_fp16 = const()[name = tensor<string, []>("const_104_to_fp16"), val = tensor<fp16, [256]>(BLOBFILE(path = tensor<string, []>("@model_path/weights/weight.bin"), offset = tensor<uint64, []>(4578688)))];
            tensor<fp16, [1, 256, 16, 16]> input_209_cast_fp16 = conv(bias = const_104_to_fp16, dilations = input_207_dilations_0, groups = input_207_groups_0, pad = input_207_pad_0, pad_type = input_207_pad_type_0, strides = input_207_strides_0, weight = const_103_to_fp16, x = input_205_cast_fp16)[name = tensor<string, []>("input_209_cast_fp16")];
            tensor<fp16, [1, 256, 16, 16]> input_211_cast_fp16 = relu(x = input_209_cast_fp16)[name = tensor<string, []>("input_211_cast_fp16")];
            tensor<string, []> input_213_pad_type_0 = const()[name = tensor<string, []>("input_213_pad_type_0"), val = tensor<string, []>("valid")];
            tensor<int32, [2]> input_213_strides_0 = const()[name = tensor<string, []>("input_213_strides_0"), val = tensor<int32, [2]>([1, 1])];
            tensor<int32, [4]> input_213_pad_0 = const()[name = tensor<string, []>("input_213_pad_0"), val = tensor<int32, [4]>([0, 0, 0, 0])];
            tensor<int32, [2]> input_213_dilations_0 = const()[name = tensor<string, []>("input_213_dilations_0"), val = tensor<int32, [2]>([1, 1])];
            tensor<int32, []> input_213_groups_0 = const()[name = tensor<string, []>("input_213_groups_0"), val = tensor<int32, []>(1)];
            tensor<fp16, [512, 256, 1, 1]> const_105_to_fp16 = const()[name = tensor<string, []>("const_105_to_fp16"), val = tensor<fp16, [512, 256, 1, 1]>(BLOBFILE(path = tensor<string, []>("@model_path/weights/weight.bin"), offset = tensor<uint64, []>(4579264)))];
            tensor<fp16, [512]> const_106_to_fp16 = const()[name = tensor<string, []>("const_106_to_fp16"), val = tensor<fp16, [512]>(BLOBFILE(path = tensor<string, []>("@model_path/weights/weight.bin"), offset = tensor<uint64, []>(4841472)))];
            tensor<fp16, [1, 512, 16, 16]> input_215_cast_fp16 = conv(bias = const_106_to_fp16, dilations = input_213_dilations_0, groups = input_213_groups_0, pad = input_213_pad_0, pad_type = input_213_pad_type_0, strides = input_213_strides_0, weight = const_105_to_fp16, x = input_211_cast_fp16)[name = tensor<string, []>("input_215_cast_fp16")];
            tensor<fp16, [1, 512, 16, 16]> input_217_cast_fp16 = relu(x = input_215_cast_fp16)[name = tensor<string, []>("input_217_cast_fp16")];
            tensor<string, []> input_219_pad_type_0 = const()[name = tensor<string, []>("input_219_pad_type_0"), val = tensor<string, []>("custom")];
            tensor<int32, [4]> input_219_pad_0 = const()[name = tensor<string, []>("input_219_pad_0"), val = tensor<int32, [4]>([1, 1, 1, 1])];
            tensor<int32, []> input_219_groups_0 = const()[name = tensor<string, []>("input_219_groups_0"), val = tensor<int32, []>(512)];
            tensor<int32, [2]> input_219_strides_0 = const()[name = tensor<string, []>("input_219_strides_0"), val = tensor<int32, [2]>([1, 1])];
            tensor<int32, [2]> input_219_dilations_0 = const()[name = tensor<string, []>("input_219_dilations_0"), val = tensor<int32, [2]>([1, 1])];
            tensor<fp16, [512, 1, 3, 3]> const_107_to_fp16 = const()[name = tensor<string, []>("const_107_to_fp16"), val = tensor<fp16, [512, 1, 3, 3]>(BLOBFILE(path = tensor<string, []>("@model_path/weights/weight.bin"), offset = tensor<uint64, []>(4842560)))];
            tensor<fp16, [512]> const_108_to_fp16 = const()[name = tensor<string, []>("const_108_to_fp16"), val = tensor<fp16, [512]>(BLOBFILE(path = tensor<string, []>("@model_path/weights/weight.bin"), offset = tensor<uint64, []>(4851840)))];
            tensor<fp16, [1, 512, 16, 16]> input_221_cast_fp16 = conv(bias = const_108_to_fp16, dilations = input_219_dilations_0, groups = input_219_groups_0, pad = input_219_pad_0, pad_type = input_219_pad_type_0, strides = input_219_strides_0, weight = const_107_to_fp16, x = input_217_cast_fp16)[name = tensor<string, []>("input_221_cast_fp16")];
            tensor<fp16, [1, 512, 16, 16]> input_223_cast_fp16 = relu(x = input_221_cast_fp16)[name = tensor<string, []>("input_223_cast_fp16")];
            tensor<string, []> input_225_pad_type_0 = const()[name = tensor<string, []>("input_225_pad_type_0"), val = tensor<string, []>("valid")];
            tensor<int32, [2]> input_225_strides_0 = const()[name = tensor<string, []>("input_225_strides_0"), val = tensor<int32, [2]>([1, 1])];
            tensor<int32, [4]> input_225_pad_0 = const()[name = tensor<string, []>("input_225_pad_0"), val = tensor<int32, [4]>([0, 0, 0, 0])];
            tensor<int32, [2]> input_225_dilations_0 = const()[name = tensor<string, []>("input_225_dilations_0"), val = tensor<int32, [2]>([1, 1])];
            tensor<int32, []> input_225_groups_0 = const()[name = tensor<string, []>("input_225_groups_0"), val = tensor<int32, []>(1)];
            tensor<fp16, [256, 512, 1, 1]> const_109_to_fp16 = const()[name = tensor<string, []>("const_109_to_fp16"), val = tensor<fp16, [256, 512, 1, 1]>(BLOBFILE(path = tensor<string, []>("@model_path/weights/weight.bin"), offset = tensor<uint64, []>(4852928)))];
            tensor<fp16, [256]> const_110_to_fp16 = const()[name = tensor<string, []>("const_110_to_fp16"), val = tensor<fp16, [256]>(BLOBFILE(path = tensor<string, []>("@model_path/weights/weight.bin"), offset = tensor<uint64, []>(5115136)))];
            tensor<fp16, [1, 256, 16, 16]> var_728_cast_fp16 = conv(bias = const_110_to_fp16, dilations = input_225_dilations_0, groups = input_225_groups_0, pad = input_225_pad_0, pad_type = input_225_pad_type_0, strides = input_225_strides_0, weight = const_109_to_fp16, x = input_223_cast_fp16)[name = tensor<string, []>("op_728_cast_fp16")];
            tensor<fp16, [1, 256, 16, 16]> input_227_cast_fp16 = add(x = input_211_cast_fp16, y = var_728_cast_fp16)[name = tensor<string, []>("input_227_cast_fp16")];
            tensor<string, []> input_229_pad_type_0 = const()[name = tensor<string, []>("input_229_pad_type_0"), val = tensor<string, []>("custom")];
            tensor<int32, [4]> input_229_pad_0 = const()[name = tensor<string, []>("input_229_pad_0"), val = tensor<int32, [4]>([3, 3, 3, 3])];
            tensor<int32, [2]> input_229_strides_0 = const()[name = tensor<string, []>("input_229_strides_0"), val = tensor<int32, [2]>([2, 2])];
            tensor<int32, [2]> input_229_dilations_0 = const()[name = tensor<string, []>("input_229_dilations_0"), val = tensor<int32, [2]>([1, 1])];
            tensor<int32, []> input_229_groups_0 = const()[name = tensor<string, []>("input_229_groups_0"), val = tensor<int32, []>(1)];
            tensor<fp16, [512, 256, 3, 3]> const_111_to_fp16 = const()[name = tensor<string, []>("const_111_to_fp16"), val = tensor<fp16, [512, 256, 3, 3]>(BLOBFILE(path = tensor<string, []>("@model_path/weights/weight.bin"), offset = tensor<uint64, []>(5115712)))];
            tensor<fp16, [512]> const_112_to_fp16 = const()[name = tensor<string, []>("const_112_to_fp16"), val = tensor<fp16, [512]>(BLOBFILE(path = tensor<string, []>("@model_path/weights/weight.bin"), offset = tensor<uint64, []>(7475072)))];
            tensor<fp16, [1, 512, 10, 10]> input_231_cast_fp16 = conv(bias = const_112_to_fp16, dilations = input_229_dilations_0, groups = input_229_groups_0, pad = input_229_pad_0, pad_type = input_229_pad_type_0, strides = input_229_strides_0, weight = const_111_to_fp16, x = input_227_cast_fp16)[name = tensor<string, []>("input_231_cast_fp16")];
            tensor<fp16, [1, 512, 10, 10]> input_233_cast_fp16 = relu(x = input_231_cast_fp16)[name = tensor<string, []>("input_233_cast_fp16")];
            tensor<string, []> input_235_pad_type_0 = const()[name = tensor<string, []>("input_235_pad_type_0"), val = tensor<string, []>("valid")];
            tensor<int32, [2]> input_235_strides_0 = const()[name = tensor<string, []>("input_235_strides_0"), val = tensor<int32, [2]>([1, 1])];
            tensor<int32, [4]> input_235_pad_0 = const()[name = tensor<string, []>("input_235_pad_0"), val = tensor<int32, [4]>([0, 0, 0, 0])];
            tensor<int32, [2]> input_235_dilations_0 = const()[name = tensor<string, []>("input_235_dilations_0"), val = tensor<int32, [2]>([1, 1])];
            tensor<int32, []> input_235_groups_0 = const()[name = tensor<string, []>("input_235_groups_0"), val = tensor<int32, []>(1)];
            tensor<fp16, [1024, 512, 1, 1]> const_113_to_fp16 = const()[name = tensor<string, []>("const_113_to_fp16"), val = tensor<fp16, [1024, 512, 1, 1]>(BLOBFILE(path = tensor<string, []>("@model_path/weights/weight.bin"), offset = tensor<uint64, []>(7476160)))];
            tensor<fp16, [1024]> const_114_to_fp16 = const()[name = tensor<string, []>("const_114_to_fp16"), val = tensor<fp16, [1024]>(BLOBFILE(path = tensor<string, []>("@model_path/weights/weight.bin"), offset = tensor<uint64, []>(8524800)))];
            tensor<fp16, [1, 1024, 10, 10]> input_237_cast_fp16 = conv(bias = const_114_to_fp16, dilations = input_235_dilations_0, groups = input_235_groups_0, pad = input_235_pad_0, pad_type = input_235_pad_type_0, strides = input_235_strides_0, weight = const_113_to_fp16, x = input_233_cast_fp16)[name = tensor<string, []>("input_237_cast_fp16")];
            tensor<fp16, [1, 1024, 10, 10]> input_239_cast_fp16 = relu(x = input_237_cast_fp16)[name = tensor<string, []>("input_239_cast_fp16")];
            tensor<string, []> input_241_pad_type_0 = const()[name = tensor<string, []>("input_241_pad_type_0"), val = tensor<string, []>("custom")];
            tensor<int32, [4]> input_241_pad_0 = const()[name = tensor<string, []>("input_241_pad_0"), val = tensor<int32, [4]>([1, 1, 1, 1])];
            tensor<int32, []> input_241_groups_0 = const()[name = tensor<string, []>("input_241_groups_0"), val = tensor<int32, []>(1024)];
            tensor<int32, [2]> input_241_strides_0 = const()[name = tensor<string, []>("input_241_strides_0"), val = tensor<int32, [2]>([1, 1])];
            tensor<int32, [2]> input_241_dilations_0 = const()[name = tensor<string, []>("input_241_dilations_0"), val = tensor<int32, [2]>([1, 1])];
            tensor<fp16, [1024, 1, 3, 3]> const_115_to_fp16 = const()[name = tensor<string, []>("const_115_to_fp16"), val = tensor<fp16, [1024, 1, 3, 3]>(BLOBFILE(path = tensor<string, []>("@model_path/weights/weight.bin"), offset = tensor<uint64, []>(8526912)))];
            tensor<fp16, [1024]> const_116_to_fp16 = const()[name = tensor<string, []>("const_116_to_fp16"), val = tensor<fp16, [1024]>(BLOBFILE(path = tensor<string, []>("@model_path/weights/weight.bin"), offset = tensor<uint64, []>(8545408)))];
            tensor<fp16, [1, 1024, 10, 10]> input_243_cast_fp16 = conv(bias = const_116_to_fp16, dilations = input_241_dilations_0, groups = input_241_groups_0, pad = input_241_pad_0, pad_type = input_241_pad_type_0, strides = input_241_strides_0, weight = const_115_to_fp16, x = input_239_cast_fp16)[name = tensor<string, []>("input_243_cast_fp16")];
            tensor<fp16, [1, 1024, 10, 10]> input_245_cast_fp16 = relu(x = input_243_cast_fp16)[name = tensor<string, []>("input_245_cast_fp16")];
            tensor<string, []> input_247_pad_type_0 = const()[name = tensor<string, []>("input_247_pad_type_0"), val = tensor<string, []>("valid")];
            tensor<int32, [2]> input_247_strides_0 = const()[name = tensor<string, []>("input_247_strides_0"), val = tensor<int32, [2]>([1, 1])];
            tensor<int32, [4]> input_247_pad_0 = const()[name = tensor<string, []>("input_247_pad_0"), val = tensor<int32, [4]>([0, 0, 0, 0])];
            tensor<int32, [2]> input_247_dilations_0 = const()[name = tensor<string, []>("input_247_dilations_0"), val = tensor<int32, [2]>([1, 1])];
            tensor<int32, []> input_247_groups_0 = const()[name = tensor<string, []>("input_247_groups_0"), val = tensor<int32, []>(1)];
            tensor<fp16, [512, 1024, 1, 1]> const_117_to_fp16 = const()[name = tensor<string, []>("const_117_to_fp16"), val = tensor<fp16, [512, 1024, 1, 1]>(BLOBFILE(path = tensor<string, []>("@model_path/weights/weight.bin"), offset = tensor<uint64, []>(8547520)))];
            tensor<fp16, [512]> const_118_to_fp16 = const()[name = tensor<string, []>("const_118_to_fp16"), val = tensor<fp16, [512]>(BLOBFILE(path = tensor<string, []>("@model_path/weights/weight.bin"), offset = tensor<uint64, []>(9596160)))];
            tensor<fp16, [1, 512, 10, 10]> var_784_cast_fp16 = conv(bias = const_118_to_fp16, dilations = input_247_dilations_0, groups = input_247_groups_0, pad = input_247_pad_0, pad_type = input_247_pad_type_0, strides = input_247_strides_0, weight = const_117_to_fp16, x = input_245_cast_fp16)[name = tensor<string, []>("op_784_cast_fp16")];
            tensor<fp16, [1, 512, 10, 10]> input_249_cast_fp16 = add(x = input_233_cast_fp16, y = var_784_cast_fp16)[name = tensor<string, []>("input_249_cast_fp16")];
            tensor<string, []> input_251_pad_type_0 = const()[name = tensor<string, []>("input_251_pad_type_0"), val = tensor<string, []>("valid")];
            tensor<int32, [2]> input_251_strides_0 = const()[name = tensor<string, []>("input_251_strides_0"), val = tensor<int32, [2]>([1, 1])];
            tensor<int32, [4]> input_251_pad_0 = const()[name = tensor<string, []>("input_251_pad_0"), val = tensor<int32, [4]>([0, 0, 0, 0])];
            tensor<int32, [2]> input_251_dilations_0 = const()[name = tensor<string, []>("input_251_dilations_0"), val = tensor<int32, [2]>([1, 1])];
            tensor<int32, []> input_251_groups_0 = const()[name = tensor<string, []>("input_251_groups_0"), val = tensor<int32, []>(1)];
            tensor<fp16, [1024, 512, 1, 1]> const_119_to_fp16 = const()[name = tensor<string, []>("const_119_to_fp16"), val = tensor<fp16, [1024, 512, 1, 1]>(BLOBFILE(path = tensor<string, []>("@model_path/weights/weight.bin"), offset = tensor<uint64, []>(9597248)))];
            tensor<fp16, [1024]> const_120_to_fp16 = const()[name = tensor<string, []>("const_120_to_fp16"), val = tensor<fp16, [1024]>(BLOBFILE(path = tensor<string, []>("@model_path/weights/weight.bin"), offset = tensor<uint64, []>(10645888)))];
            tensor<fp16, [1, 1024, 10, 10]> input_253_cast_fp16 = conv(bias = const_120_to_fp16, dilations = input_251_dilations_0, groups = input_251_groups_0, pad = input_251_pad_0, pad_type = input_251_pad_type_0, strides = input_251_strides_0, weight = const_119_to_fp16, x = input_249_cast_fp16)[name = tensor<string, []>("input_253_cast_fp16")];
            tensor<fp16, [1, 1024, 10, 10]> input_255_cast_fp16 = relu(x = input_253_cast_fp16)[name = tensor<string, []>("input_255_cast_fp16")];
            tensor<string, []> input_257_pad_type_0 = const()[name = tensor<string, []>("input_257_pad_type_0"), val = tensor<string, []>("custom")];
            tensor<int32, [4]> input_257_pad_0 = const()[name = tensor<string, []>("input_257_pad_0"), val = tensor<int32, [4]>([1, 1, 1, 1])];
            tensor<int32, []> input_257_groups_0 = const()[name = tensor<string, []>("input_257_groups_0"), val = tensor<int32, []>(1024)];
            tensor<int32, [2]> input_257_strides_0 = const()[name = tensor<string, []>("input_257_strides_0"), val = tensor<int32, [2]>([1, 1])];
            tensor<int32, [2]> input_257_dilations_0 = const()[name = tensor<string, []>("input_257_dilations_0"), val = tensor<int32, [2]>([1, 1])];
            tensor<fp16, [1024, 1, 3, 3]> const_121_to_fp16 = const()[name = tensor<string, []>("const_121_to_fp16"), val = tensor<fp16, [1024, 1, 3, 3]>(BLOBFILE(path = tensor<string, []>("@model_path/weights/weight.bin"), offset = tensor<uint64, []>(10648000)))];
            tensor<fp16, [1024]> const_122_to_fp16 = const()[name = tensor<string, []>("const_122_to_fp16"), val = tensor<fp16, [1024]>(BLOBFILE(path = tensor<string, []>("@model_path/weights/weight.bin"), offset = tensor<uint64, []>(10666496)))];
            tensor<fp16, [1, 1024, 10, 10]> input_259_cast_fp16 = conv(bias = const_122_to_fp16, dilations = input_257_dilations_0, groups = input_257_groups_0, pad = input_257_pad_0, pad_type = input_257_pad_type_0, strides = input_257_strides_0, weight = const_121_to_fp16, x = input_255_cast_fp16)[name = tensor<string, []>("input_259_cast_fp16")];
            tensor<fp16, [1, 1024, 10, 10]> input_261_cast_fp16 = relu(x = input_259_cast_fp16)[name = tensor<string, []>("input_261_cast_fp16")];
            tensor<string, []> input_263_pad_type_0 = const()[name = tensor<string, []>("input_263_pad_type_0"), val = tensor<string, []>("valid")];
            tensor<int32, [2]> input_263_strides_0 = const()[name = tensor<string, []>("input_263_strides_0"), val = tensor<int32, [2]>([1, 1])];
            tensor<int32, [4]> input_263_pad_0 = const()[name = tensor<string, []>("input_263_pad_0"), val = tensor<int32, [4]>([0, 0, 0, 0])];
            tensor<int32, [2]> input_263_dilations_0 = const()[name = tensor<string, []>("input_263_dilations_0"), val = tensor<int32, [2]>([1, 1])];
            tensor<int32, []> input_263_groups_0 = const()[name = tensor<string, []>("input_263_groups_0"), val = tensor<int32, []>(1)];
            tensor<fp16, [512, 1024, 1, 1]> const_123_to_fp16 = const()[name = tensor<string, []>("const_123_to_fp16"), val = tensor<fp16, [512, 1024, 1, 1]>(BLOBFILE(path = tensor<string, []>("@model_path/weights/weight.bin"), offset = tensor<uint64, []>(10668608)))];
            tensor<fp16, [512]> const_124_to_fp16 = const()[name = tensor<string, []>("const_124_to_fp16"), val = tensor<fp16, [512]>(BLOBFILE(path = tensor<string, []>("@model_path/weights/weight.bin"), offset = tensor<uint64, []>(11717248)))];
            tensor<fp16, [1, 512, 10, 10]> var_827_cast_fp16 = conv(bias = const_124_to_fp16, dilations = input_263_dilations_0, groups = input_263_groups_0, pad = input_263_pad_0, pad_type = input_263_pad_type_0, strides = input_263_strides_0, weight = const_123_to_fp16, x = input_261_cast_fp16)[name = tensor<string, []>("op_827_cast_fp16")];
            tensor<fp16, [1, 512, 10, 10]> audio_feat_cast_fp16 = add(x = input_249_cast_fp16, y = var_827_cast_fp16)[name = tensor<string, []>("audio_feat_cast_fp16")];
            tensor<int32, []> var_830 = const()[name = tensor<string, []>("op_830"), val = tensor<int32, []>(1)];
            tensor<bool, []> input_265_interleave_0 = const()[name = tensor<string, []>("input_265_interleave_0"), val = tensor<bool, []>(false)];
            tensor<fp16, [1, 1024, 10, 10]> input_265_cast_fp16 = concat(axis = var_830, interleave = input_265_interleave_0, values = (x6_cast_fp16, audio_feat_cast_fp16))[name = tensor<string, []>("input_265_cast_fp16")];
            tensor<string, []> input_267_pad_type_0 = const()[name = tensor<string, []>("input_267_pad_type_0"), val = tensor<string, []>("valid")];
            tensor<int32, [2]> input_267_strides_0 = const()[name = tensor<string, []>("input_267_strides_0"), val = tensor<int32, [2]>([1, 1])];
            tensor<int32, [4]> input_267_pad_0 = const()[name = tensor<string, []>("input_267_pad_0"), val = tensor<int32, [4]>([0, 0, 0, 0])];
            tensor<int32, [2]> input_267_dilations_0 = const()[name = tensor<string, []>("input_267_dilations_0"), val = tensor<int32, [2]>([1, 1])];
            tensor<int32, []> input_267_groups_0 = const()[name = tensor<string, []>("input_267_groups_0"), val = tensor<int32, []>(1)];
            tensor<fp16, [2048, 1024, 1, 1]> const_125_to_fp16 = const()[name = tensor<string, []>("const_125_to_fp16"), val = tensor<fp16, [2048, 1024, 1, 1]>(BLOBFILE(path = tensor<string, []>("@model_path/weights/weight.bin"), offset = tensor<uint64, []>(11718336)))];
            tensor<fp16, [2048]> const_126_to_fp16 = const()[name = tensor<string, []>("const_126_to_fp16"), val = tensor<fp16, [2048]>(BLOBFILE(path = tensor<string, []>("@model_path/weights/weight.bin"), offset = tensor<uint64, []>(15912704)))];
            tensor<fp16, [1, 2048, 10, 10]> input_269_cast_fp16 = conv(bias = const_126_to_fp16, dilations = input_267_dilations_0, groups = input_267_groups_0, pad = input_267_pad_0, pad_type = input_267_pad_type_0, strides = input_267_strides_0, weight = const_125_to_fp16, x = input_265_cast_fp16)[name = tensor<string, []>("input_269_cast_fp16")];
            tensor<fp16, [1, 2048, 10, 10]> input_271_cast_fp16 = relu(x = input_269_cast_fp16)[name = tensor<string, []>("input_271_cast_fp16")];
            tensor<string, []> input_273_pad_type_0 = const()[name = tensor<string, []>("input_273_pad_type_0"), val = tensor<string, []>("custom")];
            tensor<int32, [4]> input_273_pad_0 = const()[name = tensor<string, []>("input_273_pad_0"), val = tensor<int32, [4]>([1, 1, 1, 1])];
            tensor<int32, []> input_273_groups_0 = const()[name = tensor<string, []>("input_273_groups_0"), val = tensor<int32, []>(2048)];
            tensor<int32, [2]> input_273_strides_0 = const()[name = tensor<string, []>("input_273_strides_0"), val = tensor<int32, [2]>([1, 1])];
            tensor<int32, [2]> input_273_dilations_0 = const()[name = tensor<string, []>("input_273_dilations_0"), val = tensor<int32, [2]>([1, 1])];
            tensor<fp16, [2048, 1, 3, 3]> const_127_to_fp16 = const()[name = tensor<string, []>("const_127_to_fp16"), val = tensor<fp16, [2048, 1, 3, 3]>(BLOBFILE(path = tensor<string, []>("@model_path/weights/weight.bin"), offset = tensor<uint64, []>(15916864)))];
            tensor<fp16, [2048]> const_128_to_fp16 = const()[name = tensor<string, []>("const_128_to_fp16"), val = tensor<fp16, [2048]>(BLOBFILE(path = tensor<string, []>("@model_path/weights/weight.bin"), offset = tensor<uint64, []>(15953792)))];
            tensor<fp16, [1, 2048, 10, 10]> input_275_cast_fp16 = conv(bias = const_128_to_fp16, dilations = input_273_dilations_0, groups = input_273_groups_0, pad = input_273_pad_0, pad_type = input_273_pad_type_0, strides = input_273_strides_0, weight = const_127_to_fp16, x = input_271_cast_fp16)[name = tensor<string, []>("input_275_cast_fp16")];
            tensor<fp16, [1, 2048, 10, 10]> input_277_cast_fp16 = relu(x = input_275_cast_fp16)[name = tensor<string, []>("input_277_cast_fp16")];
            tensor<string, []> input_279_pad_type_0 = const()[name = tensor<string, []>("input_279_pad_type_0"), val = tensor<string, []>("valid")];
            tensor<int32, [2]> input_279_strides_0 = const()[name = tensor<string, []>("input_279_strides_0"), val = tensor<int32, [2]>([1, 1])];
            tensor<int32, [4]> input_279_pad_0 = const()[name = tensor<string, []>("input_279_pad_0"), val = tensor<int32, [4]>([0, 0, 0, 0])];
            tensor<int32, [2]> input_279_dilations_0 = const()[name = tensor<string, []>("input_279_dilations_0"), val = tensor<int32, [2]>([1, 1])];
            tensor<int32, []> input_279_groups_0 = const()[name = tensor<string, []>("input_279_groups_0"), val = tensor<int32, []>(1)];
            tensor<fp16, [512, 2048, 1, 1]> const_129_to_fp16 = const()[name = tensor<string, []>("const_129_to_fp16"), val = tensor<fp16, [512, 2048, 1, 1]>(BLOBFILE(path = tensor<string, []>("@model_path/weights/weight.bin"), offset = tensor<uint64, []>(15957952)))];
            tensor<fp16, [512]> const_130_to_fp16 = const()[name = tensor<string, []>("const_130_to_fp16"), val = tensor<fp16, [512]>(BLOBFILE(path = tensor<string, []>("@model_path/weights/weight.bin"), offset = tensor<uint64, []>(18055168)))];
            tensor<fp16, [1, 512, 10, 10]> input_281_cast_fp16 = conv(bias = const_130_to_fp16, dilations = input_279_dilations_0, groups = input_279_groups_0, pad = input_279_pad_0, pad_type = input_279_pad_type_0, strides = input_279_strides_0, weight = const_129_to_fp16, x = input_277_cast_fp16)[name = tensor<string, []>("input_281_cast_fp16")];
            tensor<string, []> input_283_pad_type_0 = const()[name = tensor<string, []>("input_283_pad_type_0"), val = tensor<string, []>("valid")];
            tensor<int32, [2]> input_283_strides_0 = const()[name = tensor<string, []>("input_283_strides_0"), val = tensor<int32, [2]>([1, 1])];
            tensor<int32, [4]> input_283_pad_0 = const()[name = tensor<string, []>("input_283_pad_0"), val = tensor<int32, [4]>([0, 0, 0, 0])];
            tensor<int32, [2]> input_283_dilations_0 = const()[name = tensor<string, []>("input_283_dilations_0"), val = tensor<int32, [2]>([1, 1])];
            tensor<int32, []> input_283_groups_0 = const()[name = tensor<string, []>("input_283_groups_0"), val = tensor<int32, []>(1)];
            tensor<fp16, [1024, 512, 1, 1]> const_131_to_fp16 = const()[name = tensor<string, []>("const_131_to_fp16"), val = tensor<fp16, [1024, 512, 1, 1]>(BLOBFILE(path = tensor<string, []>("@model_path/weights/weight.bin"), offset = tensor<uint64, []>(18056256)))];
            tensor<fp16, [1024]> const_132_to_fp16 = const()[name = tensor<string, []>("const_132_to_fp16"), val = tensor<fp16, [1024]>(BLOBFILE(path = tensor<string, []>("@model_path/weights/weight.bin"), offset = tensor<uint64, []>(19104896)))];
            tensor<fp16, [1, 1024, 10, 10]> input_285_cast_fp16 = conv(bias = const_132_to_fp16, dilations = input_283_dilations_0, groups = input_283_groups_0, pad = input_283_pad_0, pad_type = input_283_pad_type_0, strides = input_283_strides_0, weight = const_131_to_fp16, x = input_281_cast_fp16)[name = tensor<string, []>("input_285_cast_fp16")];
            tensor<fp16, [1, 1024, 10, 10]> input_287_cast_fp16 = relu(x = input_285_cast_fp16)[name = tensor<string, []>("input_287_cast_fp16")];
            tensor<string, []> input_289_pad_type_0 = const()[name = tensor<string, []>("input_289_pad_type_0"), val = tensor<string, []>("custom")];
            tensor<int32, [4]> input_289_pad_0 = const()[name = tensor<string, []>("input_289_pad_0"), val = tensor<int32, [4]>([1, 1, 1, 1])];
            tensor<int32, []> input_289_groups_0 = const()[name = tensor<string, []>("input_289_groups_0"), val = tensor<int32, []>(1024)];
            tensor<int32, [2]> input_289_strides_0 = const()[name = tensor<string, []>("input_289_strides_0"), val = tensor<int32, [2]>([1, 1])];
            tensor<int32, [2]> input_289_dilations_0 = const()[name = tensor<string, []>("input_289_dilations_0"), val = tensor<int32, [2]>([1, 1])];
            tensor<fp16, [1024, 1, 3, 3]> const_133_to_fp16 = const()[name = tensor<string, []>("const_133_to_fp16"), val = tensor<fp16, [1024, 1, 3, 3]>(BLOBFILE(path = tensor<string, []>("@model_path/weights/weight.bin"), offset = tensor<uint64, []>(19107008)))];
            tensor<fp16, [1024]> const_134_to_fp16 = const()[name = tensor<string, []>("const_134_to_fp16"), val = tensor<fp16, [1024]>(BLOBFILE(path = tensor<string, []>("@model_path/weights/weight.bin"), offset = tensor<uint64, []>(19125504)))];
            tensor<fp16, [1, 1024, 10, 10]> input_291_cast_fp16 = conv(bias = const_134_to_fp16, dilations = input_289_dilations_0, groups = input_289_groups_0, pad = input_289_pad_0, pad_type = input_289_pad_type_0, strides = input_289_strides_0, weight = const_133_to_fp16, x = input_287_cast_fp16)[name = tensor<string, []>("input_291_cast_fp16")];
            tensor<fp16, [1, 1024, 10, 10]> input_293_cast_fp16 = relu(x = input_291_cast_fp16)[name = tensor<string, []>("input_293_cast_fp16")];
            tensor<string, []> input_295_pad_type_0 = const()[name = tensor<string, []>("input_295_pad_type_0"), val = tensor<string, []>("valid")];
            tensor<int32, [2]> input_295_strides_0 = const()[name = tensor<string, []>("input_295_strides_0"), val = tensor<int32, [2]>([1, 1])];
            tensor<int32, [4]> input_295_pad_0 = const()[name = tensor<string, []>("input_295_pad_0"), val = tensor<int32, [4]>([0, 0, 0, 0])];
            tensor<int32, [2]> input_295_dilations_0 = const()[name = tensor<string, []>("input_295_dilations_0"), val = tensor<int32, [2]>([1, 1])];
            tensor<int32, []> input_295_groups_0 = const()[name = tensor<string, []>("input_295_groups_0"), val = tensor<int32, []>(1)];
            tensor<fp16, [512, 1024, 1, 1]> const_135_to_fp16 = const()[name = tensor<string, []>("const_135_to_fp16"), val = tensor<fp16, [512, 1024, 1, 1]>(BLOBFILE(path = tensor<string, []>("@model_path/weights/weight.bin"), offset = tensor<uint64, []>(19127616)))];
            tensor<fp16, [512]> const_136_to_fp16 = const()[name = tensor<string, []>("const_136_to_fp16"), val = tensor<fp16, [512]>(BLOBFILE(path = tensor<string, []>("@model_path/weights/weight.bin"), offset = tensor<uint64, []>(20176256)))];
            tensor<fp16, [1, 512, 10, 10]> var_930_cast_fp16 = conv(bias = const_136_to_fp16, dilations = input_295_dilations_0, groups = input_295_groups_0, pad = input_295_pad_0, pad_type = input_295_pad_type_0, strides = input_295_strides_0, weight = const_135_to_fp16, x = input_293_cast_fp16)[name = tensor<string, []>("op_930_cast_fp16")];
            tensor<fp16, [1, 512, 10, 10]> input_297_cast_fp16 = add(x = input_281_cast_fp16, y = var_930_cast_fp16)[name = tensor<string, []>("input_297_cast_fp16")];
            tensor<string, []> input_299_pad_type_0 = const()[name = tensor<string, []>("input_299_pad_type_0"), val = tensor<string, []>("valid")];
            tensor<int32, [2]> input_299_strides_0 = const()[name = tensor<string, []>("input_299_strides_0"), val = tensor<int32, [2]>([1, 1])];
            tensor<int32, [4]> input_299_pad_0 = const()[name = tensor<string, []>("input_299_pad_0"), val = tensor<int32, [4]>([0, 0, 0, 0])];
            tensor<int32, [2]> input_299_dilations_0 = const()[name = tensor<string, []>("input_299_dilations_0"), val = tensor<int32, [2]>([1, 1])];
            tensor<int32, []> input_299_groups_0 = const()[name = tensor<string, []>("input_299_groups_0"), val = tensor<int32, []>(1)];
            tensor<fp16, [1024, 512, 1, 1]> const_137_to_fp16 = const()[name = tensor<string, []>("const_137_to_fp16"), val = tensor<fp16, [1024, 512, 1, 1]>(BLOBFILE(path = tensor<string, []>("@model_path/weights/weight.bin"), offset = tensor<uint64, []>(20177344)))];
            tensor<fp16, [1024]> const_138_to_fp16 = const()[name = tensor<string, []>("const_138_to_fp16"), val = tensor<fp16, [1024]>(BLOBFILE(path = tensor<string, []>("@model_path/weights/weight.bin"), offset = tensor<uint64, []>(21225984)))];
            tensor<fp16, [1, 1024, 10, 10]> input_301_cast_fp16 = conv(bias = const_138_to_fp16, dilations = input_299_dilations_0, groups = input_299_groups_0, pad = input_299_pad_0, pad_type = input_299_pad_type_0, strides = input_299_strides_0, weight = const_137_to_fp16, x = input_297_cast_fp16)[name = tensor<string, []>("input_301_cast_fp16")];
            tensor<fp16, [1, 1024, 10, 10]> input_303_cast_fp16 = relu(x = input_301_cast_fp16)[name = tensor<string, []>("input_303_cast_fp16")];
            tensor<string, []> input_305_pad_type_0 = const()[name = tensor<string, []>("input_305_pad_type_0"), val = tensor<string, []>("custom")];
            tensor<int32, [4]> input_305_pad_0 = const()[name = tensor<string, []>("input_305_pad_0"), val = tensor<int32, [4]>([1, 1, 1, 1])];
            tensor<int32, []> input_305_groups_0 = const()[name = tensor<string, []>("input_305_groups_0"), val = tensor<int32, []>(1024)];
            tensor<int32, [2]> input_305_strides_0 = const()[name = tensor<string, []>("input_305_strides_0"), val = tensor<int32, [2]>([1, 1])];
            tensor<int32, [2]> input_305_dilations_0 = const()[name = tensor<string, []>("input_305_dilations_0"), val = tensor<int32, [2]>([1, 1])];
            tensor<fp16, [1024, 1, 3, 3]> const_139_to_fp16 = const()[name = tensor<string, []>("const_139_to_fp16"), val = tensor<fp16, [1024, 1, 3, 3]>(BLOBFILE(path = tensor<string, []>("@model_path/weights/weight.bin"), offset = tensor<uint64, []>(21228096)))];
            tensor<fp16, [1024]> const_140_to_fp16 = const()[name = tensor<string, []>("const_140_to_fp16"), val = tensor<fp16, [1024]>(BLOBFILE(path = tensor<string, []>("@model_path/weights/weight.bin"), offset = tensor<uint64, []>(21246592)))];
            tensor<fp16, [1, 1024, 10, 10]> input_307_cast_fp16 = conv(bias = const_140_to_fp16, dilations = input_305_dilations_0, groups = input_305_groups_0, pad = input_305_pad_0, pad_type = input_305_pad_type_0, strides = input_305_strides_0, weight = const_139_to_fp16, x = input_303_cast_fp16)[name = tensor<string, []>("input_307_cast_fp16")];
            tensor<fp16, [1, 1024, 10, 10]> input_309_cast_fp16 = relu(x = input_307_cast_fp16)[name = tensor<string, []>("input_309_cast_fp16")];
            tensor<string, []> input_311_pad_type_0 = const()[name = tensor<string, []>("input_311_pad_type_0"), val = tensor<string, []>("valid")];
            tensor<int32, [2]> input_311_strides_0 = const()[name = tensor<string, []>("input_311_strides_0"), val = tensor<int32, [2]>([1, 1])];
            tensor<int32, [4]> input_311_pad_0 = const()[name = tensor<string, []>("input_311_pad_0"), val = tensor<int32, [4]>([0, 0, 0, 0])];
            tensor<int32, [2]> input_311_dilations_0 = const()[name = tensor<string, []>("input_311_dilations_0"), val = tensor<int32, [2]>([1, 1])];
            tensor<int32, []> input_311_groups_0 = const()[name = tensor<string, []>("input_311_groups_0"), val = tensor<int32, []>(1)];
            tensor<fp16, [256, 1024, 1, 1]> const_141_to_fp16 = const()[name = tensor<string, []>("const_141_to_fp16"), val = tensor<fp16, [256, 1024, 1, 1]>(BLOBFILE(path = tensor<string, []>("@model_path/weights/weight.bin"), offset = tensor<uint64, []>(21248704)))];
            tensor<fp16, [256]> const_142_to_fp16 = const()[name = tensor<string, []>("const_142_to_fp16"), val = tensor<fp16, [256]>(BLOBFILE(path = tensor<string, []>("@model_path/weights/weight.bin"), offset = tensor<uint64, []>(21773056)))];
            tensor<fp16, [1, 256, 10, 10]> input_313_cast_fp16 = conv(bias = const_142_to_fp16, dilations = input_311_dilations_0, groups = input_311_groups_0, pad = input_311_pad_0, pad_type = input_311_pad_type_0, strides = input_311_strides_0, weight = const_141_to_fp16, x = input_309_cast_fp16)[name = tensor<string, []>("input_313_cast_fp16")];
            tensor<string, []> input_315_pad_type_0 = const()[name = tensor<string, []>("input_315_pad_type_0"), val = tensor<string, []>("valid")];
            tensor<int32, [2]> input_315_strides_0 = const()[name = tensor<string, []>("input_315_strides_0"), val = tensor<int32, [2]>([1, 1])];
            tensor<int32, [4]> input_315_pad_0 = const()[name = tensor<string, []>("input_315_pad_0"), val = tensor<int32, [4]>([0, 0, 0, 0])];
            tensor<int32, [2]> input_315_dilations_0 = const()[name = tensor<string, []>("input_315_dilations_0"), val = tensor<int32, [2]>([1, 1])];
            tensor<int32, []> input_315_groups_0 = const()[name = tensor<string, []>("input_315_groups_0"), val = tensor<int32, []>(1)];
            tensor<fp16, [512, 256, 1, 1]> const_143_to_fp16 = const()[name = tensor<string, []>("const_143_to_fp16"), val = tensor<fp16, [512, 256, 1, 1]>(BLOBFILE(path = tensor<string, []>("@model_path/weights/weight.bin"), offset = tensor<uint64, []>(21773632)))];
            tensor<fp16, [512]> const_144_to_fp16 = const()[name = tensor<string, []>("const_144_to_fp16"), val = tensor<fp16, [512]>(BLOBFILE(path = tensor<string, []>("@model_path/weights/weight.bin"), offset = tensor<uint64, []>(22035840)))];
            tensor<fp16, [1, 512, 10, 10]> input_317_cast_fp16 = conv(bias = const_144_to_fp16, dilations = input_315_dilations_0, groups = input_315_groups_0, pad = input_315_pad_0, pad_type = input_315_pad_type_0, strides = input_315_strides_0, weight = const_143_to_fp16, x = input_313_cast_fp16)[name = tensor<string, []>("input_317_cast_fp16")];
            tensor<fp16, [1, 512, 10, 10]> input_319_cast_fp16 = relu(x = input_317_cast_fp16)[name = tensor<string, []>("input_319_cast_fp16")];
            tensor<string, []> input_321_pad_type_0 = const()[name = tensor<string, []>("input_321_pad_type_0"), val = tensor<string, []>("custom")];
            tensor<int32, [4]> input_321_pad_0 = const()[name = tensor<string, []>("input_321_pad_0"), val = tensor<int32, [4]>([1, 1, 1, 1])];
            tensor<int32, []> input_321_groups_0 = const()[name = tensor<string, []>("input_321_groups_0"), val = tensor<int32, []>(512)];
            tensor<int32, [2]> input_321_strides_0 = const()[name = tensor<string, []>("input_321_strides_0"), val = tensor<int32, [2]>([1, 1])];
            tensor<int32, [2]> input_321_dilations_0 = const()[name = tensor<string, []>("input_321_dilations_0"), val = tensor<int32, [2]>([1, 1])];
            tensor<fp16, [512, 1, 3, 3]> const_145_to_fp16 = const()[name = tensor<string, []>("const_145_to_fp16"), val = tensor<fp16, [512, 1, 3, 3]>(BLOBFILE(path = tensor<string, []>("@model_path/weights/weight.bin"), offset = tensor<uint64, []>(22036928)))];
            tensor<fp16, [512]> const_146_to_fp16 = const()[name = tensor<string, []>("const_146_to_fp16"), val = tensor<fp16, [512]>(BLOBFILE(path = tensor<string, []>("@model_path/weights/weight.bin"), offset = tensor<uint64, []>(22046208)))];
            tensor<fp16, [1, 512, 10, 10]> input_323_cast_fp16 = conv(bias = const_146_to_fp16, dilations = input_321_dilations_0, groups = input_321_groups_0, pad = input_321_pad_0, pad_type = input_321_pad_type_0, strides = input_321_strides_0, weight = const_145_to_fp16, x = input_319_cast_fp16)[name = tensor<string, []>("input_323_cast_fp16")];
            tensor<fp16, [1, 512, 10, 10]> input_325_cast_fp16 = relu(x = input_323_cast_fp16)[name = tensor<string, []>("input_325_cast_fp16")];
            tensor<string, []> input_327_pad_type_0 = const()[name = tensor<string, []>("input_327_pad_type_0"), val = tensor<string, []>("valid")];
            tensor<int32, [2]> input_327_strides_0 = const()[name = tensor<string, []>("input_327_strides_0"), val = tensor<int32, [2]>([1, 1])];
            tensor<int32, [4]> input_327_pad_0 = const()[name = tensor<string, []>("input_327_pad_0"), val = tensor<int32, [4]>([0, 0, 0, 0])];
            tensor<int32, [2]> input_327_dilations_0 = const()[name = tensor<string, []>("input_327_dilations_0"), val = tensor<int32, [2]>([1, 1])];
            tensor<int32, []> input_327_groups_0 = const()[name = tensor<string, []>("input_327_groups_0"), val = tensor<int32, []>(1)];
            tensor<fp16, [256, 512, 1, 1]> const_147_to_fp16 = const()[name = tensor<string, []>("const_147_to_fp16"), val = tensor<fp16, [256, 512, 1, 1]>(BLOBFILE(path = tensor<string, []>("@model_path/weights/weight.bin"), offset = tensor<uint64, []>(22047296)))];
            tensor<fp16, [256]> const_148_to_fp16 = const()[name = tensor<string, []>("const_148_to_fp16"), val = tensor<fp16, [256]>(BLOBFILE(path = tensor<string, []>("@model_path/weights/weight.bin"), offset = tensor<uint64, []>(22309504)))];
            tensor<fp16, [1, 256, 10, 10]> var_1018_cast_fp16 = conv(bias = const_148_to_fp16, dilations = input_327_dilations_0, groups = input_327_groups_0, pad = input_327_pad_0, pad_type = input_327_pad_type_0, strides = input_327_strides_0, weight = const_147_to_fp16, x = input_325_cast_fp16)[name = tensor<string, []>("op_1018_cast_fp16")];
            tensor<fp16, [1, 256, 10, 10]> input_329_cast_fp16 = add(x = input_313_cast_fp16, y = var_1018_cast_fp16)[name = tensor<string, []>("input_329_cast_fp16")];
            tensor<int32, []> var_1029 = const()[name = tensor<string, []>("op_1029"), val = tensor<int32, []>(1)];
            tensor<fp32, []> x1_1_scale_factor_height_0 = const()[name = tensor<string, []>("x1_1_scale_factor_height_0"), val = tensor<fp32, []>(0x1p+1)];
            tensor<fp32, []> x1_1_scale_factor_width_0 = const()[name = tensor<string, []>("x1_1_scale_factor_width_0"), val = tensor<fp32, []>(0x1p+1)];
            tensor<bool, []> x1_1_align_corners_0 = const()[name = tensor<string, []>("x1_1_align_corners_0"), val = tensor<bool, []>(true)];
            tensor<fp16, [1, 256, 20, 20]> x1_1_cast_fp16 = upsample_bilinear(align_corners = x1_1_align_corners_0, scale_factor_height = x1_1_scale_factor_height_0, scale_factor_width = x1_1_scale_factor_width_0, x = input_329_cast_fp16)[name = tensor<string, []>("x1_1_cast_fp16")];
            tensor<bool, []> input_331_interleave_0 = const()[name = tensor<string, []>("input_331_interleave_0"), val = tensor<bool, []>(false)];
            tensor<fp16, [1, 512, 20, 20]> input_331_cast_fp16 = concat(axis = var_1029, interleave = input_331_interleave_0, values = (x1_1_cast_fp16, input_143_cast_fp16))[name = tensor<string, []>("input_331_cast_fp16")];
            tensor<string, []> input_333_pad_type_0 = const()[name = tensor<string, []>("input_333_pad_type_0"), val = tensor<string, []>("valid")];
            tensor<int32, [2]> input_333_strides_0 = const()[name = tensor<string, []>("input_333_strides_0"), val = tensor<int32, [2]>([1, 1])];
            tensor<int32, [4]> input_333_pad_0 = const()[name = tensor<string, []>("input_333_pad_0"), val = tensor<int32, [4]>([0, 0, 0, 0])];
            tensor<int32, [2]> input_333_dilations_0 = const()[name = tensor<string, []>("input_333_dilations_0"), val = tensor<int32, [2]>([1, 1])];
            tensor<int32, []> input_333_groups_0 = const()[name = tensor<string, []>("input_333_groups_0"), val = tensor<int32, []>(1)];
            tensor<fp16, [1024, 512, 1, 1]> const_149_to_fp16 = const()[name = tensor<string, []>("const_149_to_fp16"), val = tensor<fp16, [1024, 512, 1, 1]>(BLOBFILE(path = tensor<string, []>("@model_path/weights/weight.bin"), offset = tensor<uint64, []>(22310080)))];
            tensor<fp16, [1024]> const_150_to_fp16 = const()[name = tensor<string, []>("const_150_to_fp16"), val = tensor<fp16, [1024]>(BLOBFILE(path = tensor<string, []>("@model_path/weights/weight.bin"), offset = tensor<uint64, []>(23358720)))];
            tensor<fp16, [1, 1024, 20, 20]> input_335_cast_fp16 = conv(bias = const_150_to_fp16, dilations = input_333_dilations_0, groups = input_333_groups_0, pad = input_333_pad_0, pad_type = input_333_pad_type_0, strides = input_333_strides_0, weight = const_149_to_fp16, x = input_331_cast_fp16)[name = tensor<string, []>("input_335_cast_fp16")];
            tensor<fp16, [1, 1024, 20, 20]> input_337_cast_fp16 = relu(x = input_335_cast_fp16)[name = tensor<string, []>("input_337_cast_fp16")];
            tensor<string, []> input_339_pad_type_0 = const()[name = tensor<string, []>("input_339_pad_type_0"), val = tensor<string, []>("custom")];
            tensor<int32, [4]> input_339_pad_0 = const()[name = tensor<string, []>("input_339_pad_0"), val = tensor<int32, [4]>([1, 1, 1, 1])];
            tensor<int32, []> input_339_groups_0 = const()[name = tensor<string, []>("input_339_groups_0"), val = tensor<int32, []>(1024)];
            tensor<int32, [2]> input_339_strides_0 = const()[name = tensor<string, []>("input_339_strides_0"), val = tensor<int32, [2]>([1, 1])];
            tensor<int32, [2]> input_339_dilations_0 = const()[name = tensor<string, []>("input_339_dilations_0"), val = tensor<int32, [2]>([1, 1])];
            tensor<fp16, [1024, 1, 3, 3]> const_151_to_fp16 = const()[name = tensor<string, []>("const_151_to_fp16"), val = tensor<fp16, [1024, 1, 3, 3]>(BLOBFILE(path = tensor<string, []>("@model_path/weights/weight.bin"), offset = tensor<uint64, []>(23360832)))];
            tensor<fp16, [1024]> const_152_to_fp16 = const()[name = tensor<string, []>("const_152_to_fp16"), val = tensor<fp16, [1024]>(BLOBFILE(path = tensor<string, []>("@model_path/weights/weight.bin"), offset = tensor<uint64, []>(23379328)))];
            tensor<fp16, [1, 1024, 20, 20]> input_341_cast_fp16 = conv(bias = const_152_to_fp16, dilations = input_339_dilations_0, groups = input_339_groups_0, pad = input_339_pad_0, pad_type = input_339_pad_type_0, strides = input_339_strides_0, weight = const_151_to_fp16, x = input_337_cast_fp16)[name = tensor<string, []>("input_341_cast_fp16")];
            tensor<fp16, [1, 1024, 20, 20]> input_343_cast_fp16 = relu(x = input_341_cast_fp16)[name = tensor<string, []>("input_343_cast_fp16")];
            tensor<string, []> input_345_pad_type_0 = const()[name = tensor<string, []>("input_345_pad_type_0"), val = tensor<string, []>("valid")];
            tensor<int32, [2]> input_345_strides_0 = const()[name = tensor<string, []>("input_345_strides_0"), val = tensor<int32, [2]>([1, 1])];
            tensor<int32, [4]> input_345_pad_0 = const()[name = tensor<string, []>("input_345_pad_0"), val = tensor<int32, [4]>([0, 0, 0, 0])];
            tensor<int32, [2]> input_345_dilations_0 = const()[name = tensor<string, []>("input_345_dilations_0"), val = tensor<int32, [2]>([1, 1])];
            tensor<int32, []> input_345_groups_0 = const()[name = tensor<string, []>("input_345_groups_0"), val = tensor<int32, []>(1)];
            tensor<fp16, [128, 1024, 1, 1]> const_153_to_fp16 = const()[name = tensor<string, []>("const_153_to_fp16"), val = tensor<fp16, [128, 1024, 1, 1]>(BLOBFILE(path = tensor<string, []>("@model_path/weights/weight.bin"), offset = tensor<uint64, []>(23381440)))];
            tensor<fp16, [128]> const_154_to_fp16 = const()[name = tensor<string, []>("const_154_to_fp16"), val = tensor<fp16, [128]>(BLOBFILE(path = tensor<string, []>("@model_path/weights/weight.bin"), offset = tensor<uint64, []>(23643648)))];
            tensor<fp16, [1, 128, 20, 20]> input_347_cast_fp16 = conv(bias = const_154_to_fp16, dilations = input_345_dilations_0, groups = input_345_groups_0, pad = input_345_pad_0, pad_type = input_345_pad_type_0, strides = input_345_strides_0, weight = const_153_to_fp16, x = input_343_cast_fp16)[name = tensor<string, []>("input_347_cast_fp16")];
            tensor<string, []> input_349_pad_type_0 = const()[name = tensor<string, []>("input_349_pad_type_0"), val = tensor<string, []>("valid")];
            tensor<int32, [2]> input_349_strides_0 = const()[name = tensor<string, []>("input_349_strides_0"), val = tensor<int32, [2]>([1, 1])];
            tensor<int32, [4]> input_349_pad_0 = const()[name = tensor<string, []>("input_349_pad_0"), val = tensor<int32, [4]>([0, 0, 0, 0])];
            tensor<int32, [2]> input_349_dilations_0 = const()[name = tensor<string, []>("input_349_dilations_0"), val = tensor<int32, [2]>([1, 1])];
            tensor<int32, []> input_349_groups_0 = const()[name = tensor<string, []>("input_349_groups_0"), val = tensor<int32, []>(1)];
            tensor<fp16, [256, 128, 1, 1]> const_155_to_fp16 = const()[name = tensor<string, []>("const_155_to_fp16"), val = tensor<fp16, [256, 128, 1, 1]>(BLOBFILE(path = tensor<string, []>("@model_path/weights/weight.bin"), offset = tensor<uint64, []>(23643968)))];
            tensor<fp16, [256]> const_156_to_fp16 = const()[name = tensor<string, []>("const_156_to_fp16"), val = tensor<fp16, [256]>(BLOBFILE(path = tensor<string, []>("@model_path/weights/weight.bin"), offset = tensor<uint64, []>(23709568)))];
            tensor<fp16, [1, 256, 20, 20]> input_351_cast_fp16 = conv(bias = const_156_to_fp16, dilations = input_349_dilations_0, groups = input_349_groups_0, pad = input_349_pad_0, pad_type = input_349_pad_type_0, strides = input_349_strides_0, weight = const_155_to_fp16, x = input_347_cast_fp16)[name = tensor<string, []>("input_351_cast_fp16")];
            tensor<fp16, [1, 256, 20, 20]> input_353_cast_fp16 = relu(x = input_351_cast_fp16)[name = tensor<string, []>("input_353_cast_fp16")];
            tensor<string, []> input_355_pad_type_0 = const()[name = tensor<string, []>("input_355_pad_type_0"), val = tensor<string, []>("custom")];
            tensor<int32, [4]> input_355_pad_0 = const()[name = tensor<string, []>("input_355_pad_0"), val = tensor<int32, [4]>([1, 1, 1, 1])];
            tensor<int32, []> input_355_groups_0 = const()[name = tensor<string, []>("input_355_groups_0"), val = tensor<int32, []>(256)];
            tensor<int32, [2]> input_355_strides_0 = const()[name = tensor<string, []>("input_355_strides_0"), val = tensor<int32, [2]>([1, 1])];
            tensor<int32, [2]> input_355_dilations_0 = const()[name = tensor<string, []>("input_355_dilations_0"), val = tensor<int32, [2]>([1, 1])];
            tensor<fp16, [256, 1, 3, 3]> const_157_to_fp16 = const()[name = tensor<string, []>("const_157_to_fp16"), val = tensor<fp16, [256, 1, 3, 3]>(BLOBFILE(path = tensor<string, []>("@model_path/weights/weight.bin"), offset = tensor<uint64, []>(23710144)))];
            tensor<fp16, [256]> const_158_to_fp16 = const()[name = tensor<string, []>("const_158_to_fp16"), val = tensor<fp16, [256]>(BLOBFILE(path = tensor<string, []>("@model_path/weights/weight.bin"), offset = tensor<uint64, []>(23714816)))];
            tensor<fp16, [1, 256, 20, 20]> input_357_cast_fp16 = conv(bias = const_158_to_fp16, dilations = input_355_dilations_0, groups = input_355_groups_0, pad = input_355_pad_0, pad_type = input_355_pad_type_0, strides = input_355_strides_0, weight = const_157_to_fp16, x = input_353_cast_fp16)[name = tensor<string, []>("input_357_cast_fp16")];
            tensor<fp16, [1, 256, 20, 20]> input_359_cast_fp16 = relu(x = input_357_cast_fp16)[name = tensor<string, []>("input_359_cast_fp16")];
            tensor<string, []> input_361_pad_type_0 = const()[name = tensor<string, []>("input_361_pad_type_0"), val = tensor<string, []>("valid")];
            tensor<int32, [2]> input_361_strides_0 = const()[name = tensor<string, []>("input_361_strides_0"), val = tensor<int32, [2]>([1, 1])];
            tensor<int32, [4]> input_361_pad_0 = const()[name = tensor<string, []>("input_361_pad_0"), val = tensor<int32, [4]>([0, 0, 0, 0])];
            tensor<int32, [2]> input_361_dilations_0 = const()[name = tensor<string, []>("input_361_dilations_0"), val = tensor<int32, [2]>([1, 1])];
            tensor<int32, []> input_361_groups_0 = const()[name = tensor<string, []>("input_361_groups_0"), val = tensor<int32, []>(1)];
            tensor<fp16, [128, 256, 1, 1]> const_159_to_fp16 = const()[name = tensor<string, []>("const_159_to_fp16"), val = tensor<fp16, [128, 256, 1, 1]>(BLOBFILE(path = tensor<string, []>("@model_path/weights/weight.bin"), offset = tensor<uint64, []>(23715392)))];
            tensor<fp16, [128]> const_160_to_fp16 = const()[name = tensor<string, []>("const_160_to_fp16"), val = tensor<fp16, [128]>(BLOBFILE(path = tensor<string, []>("@model_path/weights/weight.bin"), offset = tensor<uint64, []>(23780992)))];
            tensor<fp16, [1, 128, 20, 20]> var_1147_cast_fp16 = conv(bias = const_160_to_fp16, dilations = input_361_dilations_0, groups = input_361_groups_0, pad = input_361_pad_0, pad_type = input_361_pad_type_0, strides = input_361_strides_0, weight = const_159_to_fp16, x = input_359_cast_fp16)[name = tensor<string, []>("op_1147_cast_fp16")];
            tensor<fp16, [1, 128, 20, 20]> input_363_cast_fp16 = add(x = input_347_cast_fp16, y = var_1147_cast_fp16)[name = tensor<string, []>("input_363_cast_fp16")];
            tensor<int32, []> var_1158 = const()[name = tensor<string, []>("op_1158"), val = tensor<int32, []>(1)];
            tensor<fp32, []> x1_5_scale_factor_height_0 = const()[name = tensor<string, []>("x1_5_scale_factor_height_0"), val = tensor<fp32, []>(0x1p+1)];
            tensor<fp32, []> x1_5_scale_factor_width_0 = const()[name = tensor<string, []>("x1_5_scale_factor_width_0"), val = tensor<fp32, []>(0x1p+1)];
            tensor<bool, []> x1_5_align_corners_0 = const()[name = tensor<string, []>("x1_5_align_corners_0"), val = tensor<bool, []>(true)];
            tensor<fp16, [1, 128, 40, 40]> x1_5_cast_fp16 = upsample_bilinear(align_corners = x1_5_align_corners_0, scale_factor_height = x1_5_scale_factor_height_0, scale_factor_width = x1_5_scale_factor_width_0, x = input_363_cast_fp16)[name = tensor<string, []>("x1_5_cast_fp16")];
            tensor<bool, []> input_365_interleave_0 = const()[name = tensor<string, []>("input_365_interleave_0"), val = tensor<bool, []>(false)];
            tensor<fp16, [1, 256, 40, 40]> input_365_cast_fp16 = concat(axis = var_1158, interleave = input_365_interleave_0, values = (x1_5_cast_fp16, input_111_cast_fp16))[name = tensor<string, []>("input_365_cast_fp16")];
            tensor<string, []> input_367_pad_type_0 = const()[name = tensor<string, []>("input_367_pad_type_0"), val = tensor<string, []>("valid")];
            tensor<int32, [2]> input_367_strides_0 = const()[name = tensor<string, []>("input_367_strides_0"), val = tensor<int32, [2]>([1, 1])];
            tensor<int32, [4]> input_367_pad_0 = const()[name = tensor<string, []>("input_367_pad_0"), val = tensor<int32, [4]>([0, 0, 0, 0])];
            tensor<int32, [2]> input_367_dilations_0 = const()[name = tensor<string, []>("input_367_dilations_0"), val = tensor<int32, [2]>([1, 1])];
            tensor<int32, []> input_367_groups_0 = const()[name = tensor<string, []>("input_367_groups_0"), val = tensor<int32, []>(1)];
            tensor<fp16, [512, 256, 1, 1]> const_161_to_fp16 = const()[name = tensor<string, []>("const_161_to_fp16"), val = tensor<fp16, [512, 256, 1, 1]>(BLOBFILE(path = tensor<string, []>("@model_path/weights/weight.bin"), offset = tensor<uint64, []>(23781312)))];
            tensor<fp16, [512]> const_162_to_fp16 = const()[name = tensor<string, []>("const_162_to_fp16"), val = tensor<fp16, [512]>(BLOBFILE(path = tensor<string, []>("@model_path/weights/weight.bin"), offset = tensor<uint64, []>(24043520)))];
            tensor<fp16, [1, 512, 40, 40]> input_369_cast_fp16 = conv(bias = const_162_to_fp16, dilations = input_367_dilations_0, groups = input_367_groups_0, pad = input_367_pad_0, pad_type = input_367_pad_type_0, strides = input_367_strides_0, weight = const_161_to_fp16, x = input_365_cast_fp16)[name = tensor<string, []>("input_369_cast_fp16")];
            tensor<fp16, [1, 512, 40, 40]> input_371_cast_fp16 = relu(x = input_369_cast_fp16)[name = tensor<string, []>("input_371_cast_fp16")];
            tensor<string, []> input_373_pad_type_0 = const()[name = tensor<string, []>("input_373_pad_type_0"), val = tensor<string, []>("custom")];
            tensor<int32, [4]> input_373_pad_0 = const()[name = tensor<string, []>("input_373_pad_0"), val = tensor<int32, [4]>([1, 1, 1, 1])];
            tensor<int32, []> input_373_groups_0 = const()[name = tensor<string, []>("input_373_groups_0"), val = tensor<int32, []>(512)];
            tensor<int32, [2]> input_373_strides_0 = const()[name = tensor<string, []>("input_373_strides_0"), val = tensor<int32, [2]>([1, 1])];
            tensor<int32, [2]> input_373_dilations_0 = const()[name = tensor<string, []>("input_373_dilations_0"), val = tensor<int32, [2]>([1, 1])];
            tensor<fp16, [512, 1, 3, 3]> const_163_to_fp16 = const()[name = tensor<string, []>("const_163_to_fp16"), val = tensor<fp16, [512, 1, 3, 3]>(BLOBFILE(path = tensor<string, []>("@model_path/weights/weight.bin"), offset = tensor<uint64, []>(24044608)))];
            tensor<fp16, [512]> const_164_to_fp16 = const()[name = tensor<string, []>("const_164_to_fp16"), val = tensor<fp16, [512]>(BLOBFILE(path = tensor<string, []>("@model_path/weights/weight.bin"), offset = tensor<uint64, []>(24053888)))];
            tensor<fp16, [1, 512, 40, 40]> input_375_cast_fp16 = conv(bias = const_164_to_fp16, dilations = input_373_dilations_0, groups = input_373_groups_0, pad = input_373_pad_0, pad_type = input_373_pad_type_0, strides = input_373_strides_0, weight = const_163_to_fp16, x = input_371_cast_fp16)[name = tensor<string, []>("input_375_cast_fp16")];
            tensor<fp16, [1, 512, 40, 40]> input_377_cast_fp16 = relu(x = input_375_cast_fp16)[name = tensor<string, []>("input_377_cast_fp16")];
            tensor<string, []> input_379_pad_type_0 = const()[name = tensor<string, []>("input_379_pad_type_0"), val = tensor<string, []>("valid")];
            tensor<int32, [2]> input_379_strides_0 = const()[name = tensor<string, []>("input_379_strides_0"), val = tensor<int32, [2]>([1, 1])];
            tensor<int32, [4]> input_379_pad_0 = const()[name = tensor<string, []>("input_379_pad_0"), val = tensor<int32, [4]>([0, 0, 0, 0])];
            tensor<int32, [2]> input_379_dilations_0 = const()[name = tensor<string, []>("input_379_dilations_0"), val = tensor<int32, [2]>([1, 1])];
            tensor<int32, []> input_379_groups_0 = const()[name = tensor<string, []>("input_379_groups_0"), val = tensor<int32, []>(1)];
            tensor<fp16, [64, 512, 1, 1]> const_165_to_fp16 = const()[name = tensor<string, []>("const_165_to_fp16"), val = tensor<fp16, [64, 512, 1, 1]>(BLOBFILE(path = tensor<string, []>("@model_path/weights/weight.bin"), offset = tensor<uint64, []>(24054976)))];
            tensor<fp16, [64]> const_166_to_fp16 = const()[name = tensor<string, []>("const_166_to_fp16"), val = tensor<fp16, [64]>(BLOBFILE(path = tensor<string, []>("@model_path/weights/weight.bin"), offset = tensor<uint64, []>(24120576)))];
            tensor<fp16, [1, 64, 40, 40]> input_381_cast_fp16 = conv(bias = const_166_to_fp16, dilations = input_379_dilations_0, groups = input_379_groups_0, pad = input_379_pad_0, pad_type = input_379_pad_type_0, strides = input_379_strides_0, weight = const_165_to_fp16, x = input_377_cast_fp16)[name = tensor<string, []>("input_381_cast_fp16")];
            tensor<string, []> input_383_pad_type_0 = const()[name = tensor<string, []>("input_383_pad_type_0"), val = tensor<string, []>("valid")];
            tensor<int32, [2]> input_383_strides_0 = const()[name = tensor<string, []>("input_383_strides_0"), val = tensor<int32, [2]>([1, 1])];
            tensor<int32, [4]> input_383_pad_0 = const()[name = tensor<string, []>("input_383_pad_0"), val = tensor<int32, [4]>([0, 0, 0, 0])];
            tensor<int32, [2]> input_383_dilations_0 = const()[name = tensor<string, []>("input_383_dilations_0"), val = tensor<int32, [2]>([1, 1])];
            tensor<int32, []> input_383_groups_0 = const()[name = tensor<string, []>("input_383_groups_0"), val = tensor<int32, []>(1)];
            tensor<fp16, [128, 64, 1, 1]> const_167_to_fp16 = const()[name = tensor<string, []>("const_167_to_fp16"), val = tensor<fp16, [128, 64, 1, 1]>(BLOBFILE(path = tensor<string, []>("@model_path/weights/weight.bin"), offset = tensor<uint64, []>(24120768)))];
            tensor<fp16, [128]> const_168_to_fp16 = const()[name = tensor<string, []>("const_168_to_fp16"), val = tensor<fp16, [128]>(BLOBFILE(path = tensor<string, []>("@model_path/weights/weight.bin"), offset = tensor<uint64, []>(24137216)))];
            tensor<fp16, [1, 128, 40, 40]> input_385_cast_fp16 = conv(bias = const_168_to_fp16, dilations = input_383_dilations_0, groups = input_383_groups_0, pad = input_383_pad_0, pad_type = input_383_pad_type_0, strides = input_383_strides_0, weight = const_167_to_fp16, x = input_381_cast_fp16)[name = tensor<string, []>("input_385_cast_fp16")];
            tensor<fp16, [1, 128, 40, 40]> input_387_cast_fp16 = relu(x = input_385_cast_fp16)[name = tensor<string, []>("input_387_cast_fp16")];
            tensor<string, []> input_389_pad_type_0 = const()[name = tensor<string, []>("input_389_pad_type_0"), val = tensor<string, []>("custom")];
            tensor<int32, [4]> input_389_pad_0 = const()[name = tensor<string, []>("input_389_pad_0"), val = tensor<int32, [4]>([1, 1, 1, 1])];
            tensor<int32, []> input_389_groups_0 = const()[name = tensor<string, []>("input_389_groups_0"), val = tensor<int32, []>(128)];
            tensor<int32, [2]> input_389_strides_0 = const()[name = tensor<string, []>("input_389_strides_0"), val = tensor<int32, [2]>([1, 1])];
            tensor<int32, [2]> input_389_dilations_0 = const()[name = tensor<string, []>("input_389_dilations_0"), val = tensor<int32, [2]>([1, 1])];
            tensor<fp16, [128, 1, 3, 3]> const_169_to_fp16 = const()[name = tensor<string, []>("const_169_to_fp16"), val = tensor<fp16, [128, 1, 3, 3]>(BLOBFILE(path = tensor<string, []>("@model_path/weights/weight.bin"), offset = tensor<uint64, []>(24137536)))];
            tensor<fp16, [128]> const_170_to_fp16 = const()[name = tensor<string, []>("const_170_to_fp16"), val = tensor<fp16, [128]>(BLOBFILE(path = tensor<string, []>("@model_path/weights/weight.bin"), offset = tensor<uint64, []>(24139904)))];
            tensor<fp16, [1, 128, 40, 40]> input_391_cast_fp16 = conv(bias = const_170_to_fp16, dilations = input_389_dilations_0, groups = input_389_groups_0, pad = input_389_pad_0, pad_type = input_389_pad_type_0, strides = input_389_strides_0, weight = const_169_to_fp16, x = input_387_cast_fp16)[name = tensor<string, []>("input_391_cast_fp16")];
            tensor<fp16, [1, 128, 40, 40]> input_393_cast_fp16 = relu(x = input_391_cast_fp16)[name = tensor<string, []>("input_393_cast_fp16")];
            tensor<string, []> input_395_pad_type_0 = const()[name = tensor<string, []>("input_395_pad_type_0"), val = tensor<string, []>("valid")];
            tensor<int32, [2]> input_395_strides_0 = const()[name = tensor<string, []>("input_395_strides_0"), val = tensor<int32, [2]>([1, 1])];
            tensor<int32, [4]> input_395_pad_0 = const()[name = tensor<string, []>("input_395_pad_0"), val = tensor<int32, [4]>([0, 0, 0, 0])];
            tensor<int32, [2]> input_395_dilations_0 = const()[name = tensor<string, []>("input_395_dilations_0"), val = tensor<int32, [2]>([1, 1])];
            tensor<int32, []> input_395_groups_0 = const()[name = tensor<string, []>("input_395_groups_0"), val = tensor<int32, []>(1)];
            tensor<fp16, [64, 128, 1, 1]> const_171_to_fp16 = const()[name = tensor<string, []>("const_171_to_fp16"), val = tensor<fp16, [64, 128, 1, 1]>(BLOBFILE(path = tensor<string, []>("@model_path/weights/weight.bin"), offset = tensor<uint64, []>(24140224)))];
            tensor<fp16, [64]> const_172_to_fp16 = const()[name = tensor<string, []>("const_172_to_fp16"), val = tensor<fp16, [64]>(BLOBFILE(path = tensor<string, []>("@model_path/weights/weight.bin"), offset = tensor<uint64, []>(24156672)))];
            tensor<fp16, [1, 64, 40, 40]> var_1276_cast_fp16 = conv(bias = const_172_to_fp16, dilations = input_395_dilations_0, groups = input_395_groups_0, pad = input_395_pad_0, pad_type = input_395_pad_type_0, strides = input_395_strides_0, weight = const_171_to_fp16, x = input_393_cast_fp16)[name = tensor<string, []>("op_1276_cast_fp16")];
            tensor<fp16, [1, 64, 40, 40]> input_397_cast_fp16 = add(x = input_381_cast_fp16, y = var_1276_cast_fp16)[name = tensor<string, []>("input_397_cast_fp16")];
            tensor<int32, []> var_1287 = const()[name = tensor<string, []>("op_1287"), val = tensor<int32, []>(1)];
            tensor<fp32, []> x1_9_scale_factor_height_0 = const()[name = tensor<string, []>("x1_9_scale_factor_height_0"), val = tensor<fp32, []>(0x1p+1)];
            tensor<fp32, []> x1_9_scale_factor_width_0 = const()[name = tensor<string, []>("x1_9_scale_factor_width_0"), val = tensor<fp32, []>(0x1p+1)];
            tensor<bool, []> x1_9_align_corners_0 = const()[name = tensor<string, []>("x1_9_align_corners_0"), val = tensor<bool, []>(true)];
            tensor<fp16, [1, 64, 80, 80]> x1_9_cast_fp16 = upsample_bilinear(align_corners = x1_9_align_corners_0, scale_factor_height = x1_9_scale_factor_height_0, scale_factor_width = x1_9_scale_factor_width_0, x = input_397_cast_fp16)[name = tensor<string, []>("x1_9_cast_fp16")];
            tensor<bool, []> input_399_interleave_0 = const()[name = tensor<string, []>("input_399_interleave_0"), val = tensor<bool, []>(false)];
            tensor<fp16, [1, 128, 80, 80]> input_399_cast_fp16 = concat(axis = var_1287, interleave = input_399_interleave_0, values = (x1_9_cast_fp16, input_79_cast_fp16))[name = tensor<string, []>("input_399_cast_fp16")];
            tensor<string, []> input_401_pad_type_0 = const()[name = tensor<string, []>("input_401_pad_type_0"), val = tensor<string, []>("valid")];
            tensor<int32, [2]> input_401_strides_0 = const()[name = tensor<string, []>("input_401_strides_0"), val = tensor<int32, [2]>([1, 1])];
            tensor<int32, [4]> input_401_pad_0 = const()[name = tensor<string, []>("input_401_pad_0"), val = tensor<int32, [4]>([0, 0, 0, 0])];
            tensor<int32, [2]> input_401_dilations_0 = const()[name = tensor<string, []>("input_401_dilations_0"), val = tensor<int32, [2]>([1, 1])];
            tensor<int32, []> input_401_groups_0 = const()[name = tensor<string, []>("input_401_groups_0"), val = tensor<int32, []>(1)];
            tensor<fp16, [256, 128, 1, 1]> const_173_to_fp16 = const()[name = tensor<string, []>("const_173_to_fp16"), val = tensor<fp16, [256, 128, 1, 1]>(BLOBFILE(path = tensor<string, []>("@model_path/weights/weight.bin"), offset = tensor<uint64, []>(24156864)))];
            tensor<fp16, [256]> const_174_to_fp16 = const()[name = tensor<string, []>("const_174_to_fp16"), val = tensor<fp16, [256]>(BLOBFILE(path = tensor<string, []>("@model_path/weights/weight.bin"), offset = tensor<uint64, []>(24222464)))];
            tensor<fp16, [1, 256, 80, 80]> input_403_cast_fp16 = conv(bias = const_174_to_fp16, dilations = input_401_dilations_0, groups = input_401_groups_0, pad = input_401_pad_0, pad_type = input_401_pad_type_0, strides = input_401_strides_0, weight = const_173_to_fp16, x = input_399_cast_fp16)[name = tensor<string, []>("input_403_cast_fp16")];
            tensor<fp16, [1, 256, 80, 80]> input_405_cast_fp16 = relu(x = input_403_cast_fp16)[name = tensor<string, []>("input_405_cast_fp16")];
            tensor<string, []> input_407_pad_type_0 = const()[name = tensor<string, []>("input_407_pad_type_0"), val = tensor<string, []>("custom")];
            tensor<int32, [4]> input_407_pad_0 = const()[name = tensor<string, []>("input_407_pad_0"), val = tensor<int32, [4]>([1, 1, 1, 1])];
            tensor<int32, []> input_407_groups_0 = const()[name = tensor<string, []>("input_407_groups_0"), val = tensor<int32, []>(256)];
            tensor<int32, [2]> input_407_strides_0 = const()[name = tensor<string, []>("input_407_strides_0"), val = tensor<int32, [2]>([1, 1])];
            tensor<int32, [2]> input_407_dilations_0 = const()[name = tensor<string, []>("input_407_dilations_0"), val = tensor<int32, [2]>([1, 1])];
            tensor<fp16, [256, 1, 3, 3]> const_175_to_fp16 = const()[name = tensor<string, []>("const_175_to_fp16"), val = tensor<fp16, [256, 1, 3, 3]>(BLOBFILE(path = tensor<string, []>("@model_path/weights/weight.bin"), offset = tensor<uint64, []>(24223040)))];
            tensor<fp16, [256]> const_176_to_fp16 = const()[name = tensor<string, []>("const_176_to_fp16"), val = tensor<fp16, [256]>(BLOBFILE(path = tensor<string, []>("@model_path/weights/weight.bin"), offset = tensor<uint64, []>(24227712)))];
            tensor<fp16, [1, 256, 80, 80]> input_409_cast_fp16 = conv(bias = const_176_to_fp16, dilations = input_407_dilations_0, groups = input_407_groups_0, pad = input_407_pad_0, pad_type = input_407_pad_type_0, strides = input_407_strides_0, weight = const_175_to_fp16, x = input_405_cast_fp16)[name = tensor<string, []>("input_409_cast_fp16")];
            tensor<fp16, [1, 256, 80, 80]> input_411_cast_fp16 = relu(x = input_409_cast_fp16)[name = tensor<string, []>("input_411_cast_fp16")];
            tensor<string, []> input_413_pad_type_0 = const()[name = tensor<string, []>("input_413_pad_type_0"), val = tensor<string, []>("valid")];
            tensor<int32, [2]> input_413_strides_0 = const()[name = tensor<string, []>("input_413_strides_0"), val = tensor<int32, [2]>([1, 1])];
            tensor<int32, [4]> input_413_pad_0 = const()[name = tensor<string, []>("input_413_pad_0"), val = tensor<int32, [4]>([0, 0, 0, 0])];
            tensor<int32, [2]> input_413_dilations_0 = const()[name = tensor<string, []>("input_413_dilations_0"), val = tensor<int32, [2]>([1, 1])];
            tensor<int32, []> input_413_groups_0 = const()[name = tensor<string, []>("input_413_groups_0"), val = tensor<int32, []>(1)];
            tensor<fp16, [32, 256, 1, 1]> const_177_to_fp16 = const()[name = tensor<string, []>("const_177_to_fp16"), val = tensor<fp16, [32, 256, 1, 1]>(BLOBFILE(path = tensor<string, []>("@model_path/weights/weight.bin"), offset = tensor<uint64, []>(24228288)))];
            tensor<fp16, [32]> const_178_to_fp16 = const()[name = tensor<string, []>("const_178_to_fp16"), val = tensor<fp16, [32]>(BLOBFILE(path = tensor<string, []>("@model_path/weights/weight.bin"), offset = tensor<uint64, []>(24244736)))];
            tensor<fp16, [1, 32, 80, 80]> input_415_cast_fp16 = conv(bias = const_178_to_fp16, dilations = input_413_dilations_0, groups = input_413_groups_0, pad = input_413_pad_0, pad_type = input_413_pad_type_0, strides = input_413_strides_0, weight = const_177_to_fp16, x = input_411_cast_fp16)[name = tensor<string, []>("input_415_cast_fp16")];
            tensor<string, []> input_417_pad_type_0 = const()[name = tensor<string, []>("input_417_pad_type_0"), val = tensor<string, []>("valid")];
            tensor<int32, [2]> input_417_strides_0 = const()[name = tensor<string, []>("input_417_strides_0"), val = tensor<int32, [2]>([1, 1])];
            tensor<int32, [4]> input_417_pad_0 = const()[name = tensor<string, []>("input_417_pad_0"), val = tensor<int32, [4]>([0, 0, 0, 0])];
            tensor<int32, [2]> input_417_dilations_0 = const()[name = tensor<string, []>("input_417_dilations_0"), val = tensor<int32, [2]>([1, 1])];
            tensor<int32, []> input_417_groups_0 = const()[name = tensor<string, []>("input_417_groups_0"), val = tensor<int32, []>(1)];
            tensor<fp16, [64, 32, 1, 1]> const_179_to_fp16 = const()[name = tensor<string, []>("const_179_to_fp16"), val = tensor<fp16, [64, 32, 1, 1]>(BLOBFILE(path = tensor<string, []>("@model_path/weights/weight.bin"), offset = tensor<uint64, []>(24244864)))];
            tensor<fp16, [64]> const_180_to_fp16 = const()[name = tensor<string, []>("const_180_to_fp16"), val = tensor<fp16, [64]>(BLOBFILE(path = tensor<string, []>("@model_path/weights/weight.bin"), offset = tensor<uint64, []>(24249024)))];
            tensor<fp16, [1, 64, 80, 80]> input_419_cast_fp16 = conv(bias = const_180_to_fp16, dilations = input_417_dilations_0, groups = input_417_groups_0, pad = input_417_pad_0, pad_type = input_417_pad_type_0, strides = input_417_strides_0, weight = const_179_to_fp16, x = input_415_cast_fp16)[name = tensor<string, []>("input_419_cast_fp16")];
            tensor<fp16, [1, 64, 80, 80]> input_421_cast_fp16 = relu(x = input_419_cast_fp16)[name = tensor<string, []>("input_421_cast_fp16")];
            tensor<string, []> input_423_pad_type_0 = const()[name = tensor<string, []>("input_423_pad_type_0"), val = tensor<string, []>("custom")];
            tensor<int32, [4]> input_423_pad_0 = const()[name = tensor<string, []>("input_423_pad_0"), val = tensor<int32, [4]>([1, 1, 1, 1])];
            tensor<int32, []> input_423_groups_0 = const()[name = tensor<string, []>("input_423_groups_0"), val = tensor<int32, []>(64)];
            tensor<int32, [2]> input_423_strides_0 = const()[name = tensor<string, []>("input_423_strides_0"), val = tensor<int32, [2]>([1, 1])];
            tensor<int32, [2]> input_423_dilations_0 = const()[name = tensor<string, []>("input_423_dilations_0"), val = tensor<int32, [2]>([1, 1])];
            tensor<fp16, [64, 1, 3, 3]> const_181_to_fp16 = const()[name = tensor<string, []>("const_181_to_fp16"), val = tensor<fp16, [64, 1, 3, 3]>(BLOBFILE(path = tensor<string, []>("@model_path/weights/weight.bin"), offset = tensor<uint64, []>(24249216)))];
            tensor<fp16, [64]> const_182_to_fp16 = const()[name = tensor<string, []>("const_182_to_fp16"), val = tensor<fp16, [64]>(BLOBFILE(path = tensor<string, []>("@model_path/weights/weight.bin"), offset = tensor<uint64, []>(24250432)))];
            tensor<fp16, [1, 64, 80, 80]> input_425_cast_fp16 = conv(bias = const_182_to_fp16, dilations = input_423_dilations_0, groups = input_423_groups_0, pad = input_423_pad_0, pad_type = input_423_pad_type_0, strides = input_423_strides_0, weight = const_181_to_fp16, x = input_421_cast_fp16)[name = tensor<string, []>("input_425_cast_fp16")];
            tensor<fp16, [1, 64, 80, 80]> input_427_cast_fp16 = relu(x = input_425_cast_fp16)[name = tensor<string, []>("input_427_cast_fp16")];
            tensor<string, []> input_429_pad_type_0 = const()[name = tensor<string, []>("input_429_pad_type_0"), val = tensor<string, []>("valid")];
            tensor<int32, [2]> input_429_strides_0 = const()[name = tensor<string, []>("input_429_strides_0"), val = tensor<int32, [2]>([1, 1])];
            tensor<int32, [4]> input_429_pad_0 = const()[name = tensor<string, []>("input_429_pad_0"), val = tensor<int32, [4]>([0, 0, 0, 0])];
            tensor<int32, [2]> input_429_dilations_0 = const()[name = tensor<string, []>("input_429_dilations_0"), val = tensor<int32, [2]>([1, 1])];
            tensor<int32, []> input_429_groups_0 = const()[name = tensor<string, []>("input_429_groups_0"), val = tensor<int32, []>(1)];
            tensor<fp16, [32, 64, 1, 1]> const_183_to_fp16 = const()[name = tensor<string, []>("const_183_to_fp16"), val = tensor<fp16, [32, 64, 1, 1]>(BLOBFILE(path = tensor<string, []>("@model_path/weights/weight.bin"), offset = tensor<uint64, []>(24250624)))];
            tensor<fp16, [32]> const_184_to_fp16 = const()[name = tensor<string, []>("const_184_to_fp16"), val = tensor<fp16, [32]>(BLOBFILE(path = tensor<string, []>("@model_path/weights/weight.bin"), offset = tensor<uint64, []>(24254784)))];
            tensor<fp16, [1, 32, 80, 80]> var_1405_cast_fp16 = conv(bias = const_184_to_fp16, dilations = input_429_dilations_0, groups = input_429_groups_0, pad = input_429_pad_0, pad_type = input_429_pad_type_0, strides = input_429_strides_0, weight = const_183_to_fp16, x = input_427_cast_fp16)[name = tensor<string, []>("op_1405_cast_fp16")];
            tensor<fp16, [1, 32, 80, 80]> input_431_cast_fp16 = add(x = input_415_cast_fp16, y = var_1405_cast_fp16)[name = tensor<string, []>("input_431_cast_fp16")];
            tensor<int32, []> var_1416 = const()[name = tensor<string, []>("op_1416"), val = tensor<int32, []>(1)];
            tensor<fp32, []> x1_13_scale_factor_height_0 = const()[name = tensor<string, []>("x1_13_scale_factor_height_0"), val = tensor<fp32, []>(0x1p+1)];
            tensor<fp32, []> x1_13_scale_factor_width_0 = const()[name = tensor<string, []>("x1_13_scale_factor_width_0"), val = tensor<fp32, []>(0x1p+1)];
            tensor<bool, []> x1_13_align_corners_0 = const()[name = tensor<string, []>("x1_13_align_corners_0"), val = tensor<bool, []>(true)];
            tensor<fp16, [1, 32, 160, 160]> x1_13_cast_fp16 = upsample_bilinear(align_corners = x1_13_align_corners_0, scale_factor_height = x1_13_scale_factor_height_0, scale_factor_width = x1_13_scale_factor_width_0, x = input_431_cast_fp16)[name = tensor<string, []>("x1_13_cast_fp16")];
            tensor<bool, []> input_433_interleave_0 = const()[name = tensor<string, []>("input_433_interleave_0"), val = tensor<bool, []>(false)];
            tensor<fp16, [1, 64, 160, 160]> input_433_cast_fp16 = concat(axis = var_1416, interleave = input_433_interleave_0, values = (x1_13_cast_fp16, input_47_cast_fp16))[name = tensor<string, []>("input_433_cast_fp16")];
            tensor<string, []> input_435_pad_type_0 = const()[name = tensor<string, []>("input_435_pad_type_0"), val = tensor<string, []>("valid")];
            tensor<int32, [2]> input_435_strides_0 = const()[name = tensor<string, []>("input_435_strides_0"), val = tensor<int32, [2]>([1, 1])];
            tensor<int32, [4]> input_435_pad_0 = const()[name = tensor<string, []>("input_435_pad_0"), val = tensor<int32, [4]>([0, 0, 0, 0])];
            tensor<int32, [2]> input_435_dilations_0 = const()[name = tensor<string, []>("input_435_dilations_0"), val = tensor<int32, [2]>([1, 1])];
            tensor<int32, []> input_435_groups_0 = const()[name = tensor<string, []>("input_435_groups_0"), val = tensor<int32, []>(1)];
            tensor<fp16, [128, 64, 1, 1]> const_185_to_fp16 = const()[name = tensor<string, []>("const_185_to_fp16"), val = tensor<fp16, [128, 64, 1, 1]>(BLOBFILE(path = tensor<string, []>("@model_path/weights/weight.bin"), offset = tensor<uint64, []>(24254912)))];
            tensor<fp16, [128]> const_186_to_fp16 = const()[name = tensor<string, []>("const_186_to_fp16"), val = tensor<fp16, [128]>(BLOBFILE(path = tensor<string, []>("@model_path/weights/weight.bin"), offset = tensor<uint64, []>(24271360)))];
            tensor<fp16, [1, 128, 160, 160]> input_437_cast_fp16 = conv(bias = const_186_to_fp16, dilations = input_435_dilations_0, groups = input_435_groups_0, pad = input_435_pad_0, pad_type = input_435_pad_type_0, strides = input_435_strides_0, weight = const_185_to_fp16, x = input_433_cast_fp16)[name = tensor<string, []>("input_437_cast_fp16")];
            tensor<fp16, [1, 128, 160, 160]> input_439_cast_fp16 = relu(x = input_437_cast_fp16)[name = tensor<string, []>("input_439_cast_fp16")];
            tensor<string, []> input_441_pad_type_0 = const()[name = tensor<string, []>("input_441_pad_type_0"), val = tensor<string, []>("custom")];
            tensor<int32, [4]> input_441_pad_0 = const()[name = tensor<string, []>("input_441_pad_0"), val = tensor<int32, [4]>([1, 1, 1, 1])];
            tensor<int32, []> input_441_groups_0 = const()[name = tensor<string, []>("input_441_groups_0"), val = tensor<int32, []>(128)];
            tensor<int32, [2]> input_441_strides_0 = const()[name = tensor<string, []>("input_441_strides_0"), val = tensor<int32, [2]>([1, 1])];
            tensor<int32, [2]> input_441_dilations_0 = const()[name = tensor<string, []>("input_441_dilations_0"), val = tensor<int32, [2]>([1, 1])];
            tensor<fp16, [128, 1, 3, 3]> const_187_to_fp16 = const()[name = tensor<string, []>("const_187_to_fp16"), val = tensor<fp16, [128, 1, 3, 3]>(BLOBFILE(path = tensor<string, []>("@model_path/weights/weight.bin"), offset = tensor<uint64, []>(24271680)))];
            tensor<fp16, [128]> const_188_to_fp16 = const()[name = tensor<string, []>("const_188_to_fp16"), val = tensor<fp16, [128]>(BLOBFILE(path = tensor<string, []>("@model_path/weights/weight.bin"), offset = tensor<uint64, []>(24274048)))];
            tensor<fp16, [1, 128, 160, 160]> input_443_cast_fp16 = conv(bias = const_188_to_fp16, dilations = input_441_dilations_0, groups = input_441_groups_0, pad = input_441_pad_0, pad_type = input_441_pad_type_0, strides = input_441_strides_0, weight = const_187_to_fp16, x = input_439_cast_fp16)[name = tensor<string, []>("input_443_cast_fp16")];
            tensor<fp16, [1, 128, 160, 160]> input_445_cast_fp16 = relu(x = input_443_cast_fp16)[name = tensor<string, []>("input_445_cast_fp16")];
            tensor<string, []> input_447_pad_type_0 = const()[name = tensor<string, []>("input_447_pad_type_0"), val = tensor<string, []>("valid")];
            tensor<int32, [2]> input_447_strides_0 = const()[name = tensor<string, []>("input_447_strides_0"), val = tensor<int32, [2]>([1, 1])];
            tensor<int32, [4]> input_447_pad_0 = const()[name = tensor<string, []>("input_447_pad_0"), val = tensor<int32, [4]>([0, 0, 0, 0])];
            tensor<int32, [2]> input_447_dilations_0 = const()[name = tensor<string, []>("input_447_dilations_0"), val = tensor<int32, [2]>([1, 1])];
            tensor<int32, []> input_447_groups_0 = const()[name = tensor<string, []>("input_447_groups_0"), val = tensor<int32, []>(1)];
            tensor<fp16, [32, 128, 1, 1]> const_189_to_fp16 = const()[name = tensor<string, []>("const_189_to_fp16"), val = tensor<fp16, [32, 128, 1, 1]>(BLOBFILE(path = tensor<string, []>("@model_path/weights/weight.bin"), offset = tensor<uint64, []>(24274368)))];
            tensor<fp16, [32]> const_190_to_fp16 = const()[name = tensor<string, []>("const_190_to_fp16"), val = tensor<fp16, [32]>(BLOBFILE(path = tensor<string, []>("@model_path/weights/weight.bin"), offset = tensor<uint64, []>(24282624)))];
            tensor<fp16, [1, 32, 160, 160]> input_449_cast_fp16 = conv(bias = const_190_to_fp16, dilations = input_447_dilations_0, groups = input_447_groups_0, pad = input_447_pad_0, pad_type = input_447_pad_type_0, strides = input_447_strides_0, weight = const_189_to_fp16, x = input_445_cast_fp16)[name = tensor<string, []>("input_449_cast_fp16")];
            tensor<string, []> input_451_pad_type_0 = const()[name = tensor<string, []>("input_451_pad_type_0"), val = tensor<string, []>("valid")];
            tensor<int32, [2]> input_451_strides_0 = const()[name = tensor<string, []>("input_451_strides_0"), val = tensor<int32, [2]>([1, 1])];
            tensor<int32, [4]> input_451_pad_0 = const()[name = tensor<string, []>("input_451_pad_0"), val = tensor<int32, [4]>([0, 0, 0, 0])];
            tensor<int32, [2]> input_451_dilations_0 = const()[name = tensor<string, []>("input_451_dilations_0"), val = tensor<int32, [2]>([1, 1])];
            tensor<int32, []> input_451_groups_0 = const()[name = tensor<string, []>("input_451_groups_0"), val = tensor<int32, []>(1)];
            tensor<fp16, [64, 32, 1, 1]> const_191_to_fp16 = const()[name = tensor<string, []>("const_191_to_fp16"), val = tensor<fp16, [64, 32, 1, 1]>(BLOBFILE(path = tensor<string, []>("@model_path/weights/weight.bin"), offset = tensor<uint64, []>(24282752)))];
            tensor<fp16, [64]> const_192_to_fp16 = const()[name = tensor<string, []>("const_192_to_fp16"), val = tensor<fp16, [64]>(BLOBFILE(path = tensor<string, []>("@model_path/weights/weight.bin"), offset = tensor<uint64, []>(24286912)))];
            tensor<fp16, [1, 64, 160, 160]> input_453_cast_fp16 = conv(bias = const_192_to_fp16, dilations = input_451_dilations_0, groups = input_451_groups_0, pad = input_451_pad_0, pad_type = input_451_pad_type_0, strides = input_451_strides_0, weight = const_191_to_fp16, x = input_449_cast_fp16)[name = tensor<string, []>("input_453_cast_fp16")];
            tensor<fp16, [1, 64, 160, 160]> input_455_cast_fp16 = relu(x = input_453_cast_fp16)[name = tensor<string, []>("input_455_cast_fp16")];
            tensor<string, []> input_457_pad_type_0 = const()[name = tensor<string, []>("input_457_pad_type_0"), val = tensor<string, []>("custom")];
            tensor<int32, [4]> input_457_pad_0 = const()[name = tensor<string, []>("input_457_pad_0"), val = tensor<int32, [4]>([1, 1, 1, 1])];
            tensor<int32, []> input_457_groups_0 = const()[name = tensor<string, []>("input_457_groups_0"), val = tensor<int32, []>(64)];
            tensor<int32, [2]> input_457_strides_0 = const()[name = tensor<string, []>("input_457_strides_0"), val = tensor<int32, [2]>([1, 1])];
            tensor<int32, [2]> input_457_dilations_0 = const()[name = tensor<string, []>("input_457_dilations_0"), val = tensor<int32, [2]>([1, 1])];
            tensor<fp16, [64, 1, 3, 3]> const_193_to_fp16 = const()[name = tensor<string, []>("const_193_to_fp16"), val = tensor<fp16, [64, 1, 3, 3]>(BLOBFILE(path = tensor<string, []>("@model_path/weights/weight.bin"), offset = tensor<uint64, []>(24287104)))];
            tensor<fp16, [64]> const_194_to_fp16 = const()[name = tensor<string, []>("const_194_to_fp16"), val = tensor<fp16, [64]>(BLOBFILE(path = tensor<string, []>("@model_path/weights/weight.bin"), offset = tensor<uint64, []>(24288320)))];
            tensor<fp16, [1, 64, 160, 160]> input_459_cast_fp16 = conv(bias = const_194_to_fp16, dilations = input_457_dilations_0, groups = input_457_groups_0, pad = input_457_pad_0, pad_type = input_457_pad_type_0, strides = input_457_strides_0, weight = const_193_to_fp16, x = input_455_cast_fp16)[name = tensor<string, []>("input_459_cast_fp16")];
            tensor<fp16, [1, 64, 160, 160]> input_461_cast_fp16 = relu(x = input_459_cast_fp16)[name = tensor<string, []>("input_461_cast_fp16")];
            tensor<string, []> input_463_pad_type_0 = const()[name = tensor<string, []>("input_463_pad_type_0"), val = tensor<string, []>("valid")];
            tensor<int32, [2]> input_463_strides_0 = const()[name = tensor<string, []>("input_463_strides_0"), val = tensor<int32, [2]>([1, 1])];
            tensor<int32, [4]> input_463_pad_0 = const()[name = tensor<string, []>("input_463_pad_0"), val = tensor<int32, [4]>([0, 0, 0, 0])];
            tensor<int32, [2]> input_463_dilations_0 = const()[name = tensor<string, []>("input_463_dilations_0"), val = tensor<int32, [2]>([1, 1])];
            tensor<int32, []> input_463_groups_0 = const()[name = tensor<string, []>("input_463_groups_0"), val = tensor<int32, []>(1)];
            tensor<fp16, [32, 64, 1, 1]> const_195_to_fp16 = const()[name = tensor<string, []>("const_195_to_fp16"), val = tensor<fp16, [32, 64, 1, 1]>(BLOBFILE(path = tensor<string, []>("@model_path/weights/weight.bin"), offset = tensor<uint64, []>(24288512)))];
            tensor<fp16, [32]> const_196_to_fp16 = const()[name = tensor<string, []>("const_196_to_fp16"), val = tensor<fp16, [32]>(BLOBFILE(path = tensor<string, []>("@model_path/weights/weight.bin"), offset = tensor<uint64, []>(24292672)))];
            tensor<fp16, [1, 32, 160, 160]> var_1534_cast_fp16 = conv(bias = const_196_to_fp16, dilations = input_463_dilations_0, groups = input_463_groups_0, pad = input_463_pad_0, pad_type = input_463_pad_type_0, strides = input_463_strides_0, weight = const_195_to_fp16, x = input_461_cast_fp16)[name = tensor<string, []>("op_1534_cast_fp16")];
            tensor<fp16, [1, 32, 160, 160]> input_465_cast_fp16 = add(x = input_449_cast_fp16, y = var_1534_cast_fp16)[name = tensor<string, []>("input_465_cast_fp16")];
            tensor<int32, []> var_1545 = const()[name = tensor<string, []>("op_1545"), val = tensor<int32, []>(1)];
            tensor<fp32, []> x1_17_scale_factor_height_0 = const()[name = tensor<string, []>("x1_17_scale_factor_height_0"), val = tensor<fp32, []>(0x1p+1)];
            tensor<fp32, []> x1_17_scale_factor_width_0 = const()[name = tensor<string, []>("x1_17_scale_factor_width_0"), val = tensor<fp32, []>(0x1p+1)];
            tensor<bool, []> x1_17_align_corners_0 = const()[name = tensor<string, []>("x1_17_align_corners_0"), val = tensor<bool, []>(true)];
            tensor<fp16, [1, 32, 320, 320]> x1_17_cast_fp16 = upsample_bilinear(align_corners = x1_17_align_corners_0, scale_factor_height = x1_17_scale_factor_height_0, scale_factor_width = x1_17_scale_factor_width_0, x = input_465_cast_fp16)[name = tensor<string, []>("x1_17_cast_fp16")];
            tensor<bool, []> input_467_interleave_0 = const()[name = tensor<string, []>("input_467_interleave_0"), val = tensor<bool, []>(false)];
            tensor<fp16, [1, 64, 320, 320]> input_467_cast_fp16 = concat(axis = var_1545, interleave = input_467_interleave_0, values = (x1_17_cast_fp16, input_15_cast_fp16))[name = tensor<string, []>("input_467_cast_fp16")];
            tensor<string, []> input_469_pad_type_0 = const()[name = tensor<string, []>("input_469_pad_type_0"), val = tensor<string, []>("valid")];
            tensor<int32, [2]> input_469_strides_0 = const()[name = tensor<string, []>("input_469_strides_0"), val = tensor<int32, [2]>([1, 1])];
            tensor<int32, [4]> input_469_pad_0 = const()[name = tensor<string, []>("input_469_pad_0"), val = tensor<int32, [4]>([0, 0, 0, 0])];
            tensor<int32, [2]> input_469_dilations_0 = const()[name = tensor<string, []>("input_469_dilations_0"), val = tensor<int32, [2]>([1, 1])];
            tensor<int32, []> input_469_groups_0 = const()[name = tensor<string, []>("input_469_groups_0"), val = tensor<int32, []>(1)];
            tensor<fp16, [128, 64, 1, 1]> const_197_to_fp16 = const()[name = tensor<string, []>("const_197_to_fp16"), val = tensor<fp16, [128, 64, 1, 1]>(BLOBFILE(path = tensor<string, []>("@model_path/weights/weight.bin"), offset = tensor<uint64, []>(24292800)))];
            tensor<fp16, [128]> const_198_to_fp16 = const()[name = tensor<string, []>("const_198_to_fp16"), val = tensor<fp16, [128]>(BLOBFILE(path = tensor<string, []>("@model_path/weights/weight.bin"), offset = tensor<uint64, []>(24309248)))];
            tensor<fp16, [1, 128, 320, 320]> input_471_cast_fp16 = conv(bias = const_198_to_fp16, dilations = input_469_dilations_0, groups = input_469_groups_0, pad = input_469_pad_0, pad_type = input_469_pad_type_0, strides = input_469_strides_0, weight = const_197_to_fp16, x = input_467_cast_fp16)[name = tensor<string, []>("input_471_cast_fp16")];
            tensor<fp16, [1, 128, 320, 320]> input_473_cast_fp16 = relu(x = input_471_cast_fp16)[name = tensor<string, []>("input_473_cast_fp16")];
            tensor<string, []> input_475_pad_type_0 = const()[name = tensor<string, []>("input_475_pad_type_0"), val = tensor<string, []>("custom")];
            tensor<int32, [4]> input_475_pad_0 = const()[name = tensor<string, []>("input_475_pad_0"), val = tensor<int32, [4]>([1, 1, 1, 1])];
            tensor<int32, []> input_475_groups_0 = const()[name = tensor<string, []>("input_475_groups_0"), val = tensor<int32, []>(128)];
            tensor<int32, [2]> input_475_strides_0 = const()[name = tensor<string, []>("input_475_strides_0"), val = tensor<int32, [2]>([1, 1])];
            tensor<int32, [2]> input_475_dilations_0 = const()[name = tensor<string, []>("input_475_dilations_0"), val = tensor<int32, [2]>([1, 1])];
            tensor<fp16, [128, 1, 3, 3]> const_199_to_fp16 = const()[name = tensor<string, []>("const_199_to_fp16"), val = tensor<fp16, [128, 1, 3, 3]>(BLOBFILE(path = tensor<string, []>("@model_path/weights/weight.bin"), offset = tensor<uint64, []>(24309568)))];
            tensor<fp16, [128]> const_200_to_fp16 = const()[name = tensor<string, []>("const_200_to_fp16"), val = tensor<fp16, [128]>(BLOBFILE(path = tensor<string, []>("@model_path/weights/weight.bin"), offset = tensor<uint64, []>(24311936)))];
            tensor<fp16, [1, 128, 320, 320]> input_477_cast_fp16 = conv(bias = const_200_to_fp16, dilations = input_475_dilations_0, groups = input_475_groups_0, pad = input_475_pad_0, pad_type = input_475_pad_type_0, strides = input_475_strides_0, weight = const_199_to_fp16, x = input_473_cast_fp16)[name = tensor<string, []>("input_477_cast_fp16")];
            tensor<fp16, [1, 128, 320, 320]> input_479_cast_fp16 = relu(x = input_477_cast_fp16)[name = tensor<string, []>("input_479_cast_fp16")];
            tensor<string, []> input_481_pad_type_0 = const()[name = tensor<string, []>("input_481_pad_type_0"), val = tensor<string, []>("valid")];
            tensor<int32, [2]> input_481_strides_0 = const()[name = tensor<string, []>("input_481_strides_0"), val = tensor<int32, [2]>([1, 1])];
            tensor<int32, [4]> input_481_pad_0 = const()[name = tensor<string, []>("input_481_pad_0"), val = tensor<int32, [4]>([0, 0, 0, 0])];
            tensor<int32, [2]> input_481_dilations_0 = const()[name = tensor<string, []>("input_481_dilations_0"), val = tensor<int32, [2]>([1, 1])];
            tensor<int32, []> input_481_groups_0 = const()[name = tensor<string, []>("input_481_groups_0"), val = tensor<int32, []>(1)];
            tensor<fp16, [16, 128, 1, 1]> const_201_to_fp16 = const()[name = tensor<string, []>("const_201_to_fp16"), val = tensor<fp16, [16, 128, 1, 1]>(BLOBFILE(path = tensor<string, []>("@model_path/weights/weight.bin"), offset = tensor<uint64, []>(24312256)))];
            tensor<fp16, [16]> const_202_to_fp16 = const()[name = tensor<string, []>("const_202_to_fp16"), val = tensor<fp16, [16]>(BLOBFILE(path = tensor<string, []>("@model_path/weights/weight.bin"), offset = tensor<uint64, []>(24316416)))];
            tensor<fp16, [1, 16, 320, 320]> input_483_cast_fp16 = conv(bias = const_202_to_fp16, dilations = input_481_dilations_0, groups = input_481_groups_0, pad = input_481_pad_0, pad_type = input_481_pad_type_0, strides = input_481_strides_0, weight = const_201_to_fp16, x = input_479_cast_fp16)[name = tensor<string, []>("input_483_cast_fp16")];
            tensor<string, []> input_485_pad_type_0 = const()[name = tensor<string, []>("input_485_pad_type_0"), val = tensor<string, []>("valid")];
            tensor<int32, [2]> input_485_strides_0 = const()[name = tensor<string, []>("input_485_strides_0"), val = tensor<int32, [2]>([1, 1])];
            tensor<int32, [4]> input_485_pad_0 = const()[name = tensor<string, []>("input_485_pad_0"), val = tensor<int32, [4]>([0, 0, 0, 0])];
            tensor<int32, [2]> input_485_dilations_0 = const()[name = tensor<string, []>("input_485_dilations_0"), val = tensor<int32, [2]>([1, 1])];
            tensor<int32, []> input_485_groups_0 = const()[name = tensor<string, []>("input_485_groups_0"), val = tensor<int32, []>(1)];
            tensor<fp16, [32, 16, 1, 1]> const_203_to_fp16 = const()[name = tensor<string, []>("const_203_to_fp16"), val = tensor<fp16, [32, 16, 1, 1]>(BLOBFILE(path = tensor<string, []>("@model_path/weights/weight.bin"), offset = tensor<uint64, []>(24316544)))];
            tensor<fp16, [32]> const_204_to_fp16 = const()[name = tensor<string, []>("const_204_to_fp16"), val = tensor<fp16, [32]>(BLOBFILE(path = tensor<string, []>("@model_path/weights/weight.bin"), offset = tensor<uint64, []>(24317632)))];
            tensor<fp16, [1, 32, 320, 320]> input_487_cast_fp16 = conv(bias = const_204_to_fp16, dilations = input_485_dilations_0, groups = input_485_groups_0, pad = input_485_pad_0, pad_type = input_485_pad_type_0, strides = input_485_strides_0, weight = const_203_to_fp16, x = input_483_cast_fp16)[name = tensor<string, []>("input_487_cast_fp16")];
            tensor<fp16, [1, 32, 320, 320]> input_489_cast_fp16 = relu(x = input_487_cast_fp16)[name = tensor<string, []>("input_489_cast_fp16")];
            tensor<string, []> input_491_pad_type_0 = const()[name = tensor<string, []>("input_491_pad_type_0"), val = tensor<string, []>("custom")];
            tensor<int32, [4]> input_491_pad_0 = const()[name = tensor<string, []>("input_491_pad_0"), val = tensor<int32, [4]>([1, 1, 1, 1])];
            tensor<int32, []> input_491_groups_0 = const()[name = tensor<string, []>("input_491_groups_0"), val = tensor<int32, []>(32)];
            tensor<int32, [2]> input_491_strides_0 = const()[name = tensor<string, []>("input_491_strides_0"), val = tensor<int32, [2]>([1, 1])];
            tensor<int32, [2]> input_491_dilations_0 = const()[name = tensor<string, []>("input_491_dilations_0"), val = tensor<int32, [2]>([1, 1])];
            tensor<fp16, [32, 1, 3, 3]> const_205_to_fp16 = const()[name = tensor<string, []>("const_205_to_fp16"), val = tensor<fp16, [32, 1, 3, 3]>(BLOBFILE(path = tensor<string, []>("@model_path/weights/weight.bin"), offset = tensor<uint64, []>(24317760)))];
            tensor<fp16, [32]> const_206_to_fp16 = const()[name = tensor<string, []>("const_206_to_fp16"), val = tensor<fp16, [32]>(BLOBFILE(path = tensor<string, []>("@model_path/weights/weight.bin"), offset = tensor<uint64, []>(24318400)))];
            tensor<fp16, [1, 32, 320, 320]> input_493_cast_fp16 = conv(bias = const_206_to_fp16, dilations = input_491_dilations_0, groups = input_491_groups_0, pad = input_491_pad_0, pad_type = input_491_pad_type_0, strides = input_491_strides_0, weight = const_205_to_fp16, x = input_489_cast_fp16)[name = tensor<string, []>("input_493_cast_fp16")];
            tensor<fp16, [1, 32, 320, 320]> input_495_cast_fp16 = relu(x = input_493_cast_fp16)[name = tensor<string, []>("input_495_cast_fp16")];
            tensor<string, []> input_497_pad_type_0 = const()[name = tensor<string, []>("input_497_pad_type_0"), val = tensor<string, []>("valid")];
            tensor<int32, [2]> input_497_strides_0 = const()[name = tensor<string, []>("input_497_strides_0"), val = tensor<int32, [2]>([1, 1])];
            tensor<int32, [4]> input_497_pad_0 = const()[name = tensor<string, []>("input_497_pad_0"), val = tensor<int32, [4]>([0, 0, 0, 0])];
            tensor<int32, [2]> input_497_dilations_0 = const()[name = tensor<string, []>("input_497_dilations_0"), val = tensor<int32, [2]>([1, 1])];
            tensor<int32, []> input_497_groups_0 = const()[name = tensor<string, []>("input_497_groups_0"), val = tensor<int32, []>(1)];
            tensor<fp16, [16, 32, 1, 1]> const_207_to_fp16 = const()[name = tensor<string, []>("const_207_to_fp16"), val = tensor<fp16, [16, 32, 1, 1]>(BLOBFILE(path = tensor<string, []>("@model_path/weights/weight.bin"), offset = tensor<uint64, []>(24318528)))];
            tensor<fp16, [16]> const_208_to_fp16 = const()[name = tensor<string, []>("const_208_to_fp16"), val = tensor<fp16, [16]>(BLOBFILE(path = tensor<string, []>("@model_path/weights/weight.bin"), offset = tensor<uint64, []>(24319616)))];
            tensor<fp16, [1, 16, 320, 320]> var_1663_cast_fp16 = conv(bias = const_208_to_fp16, dilations = input_497_dilations_0, groups = input_497_groups_0, pad = input_497_pad_0, pad_type = input_497_pad_type_0, strides = input_497_strides_0, weight = const_207_to_fp16, x = input_495_cast_fp16)[name = tensor<string, []>("op_1663_cast_fp16")];
            tensor<fp16, [1, 16, 320, 320]> input_499_cast_fp16 = add(x = input_483_cast_fp16, y = var_1663_cast_fp16)[name = tensor<string, []>("input_499_cast_fp16")];
            tensor<string, []> input_pad_type_0 = const()[name = tensor<string, []>("input_pad_type_0"), val = tensor<string, []>("valid")];
            tensor<int32, [2]> input_strides_0 = const()[name = tensor<string, []>("input_strides_0"), val = tensor<int32, [2]>([1, 1])];
            tensor<int32, [4]> input_pad_0 = const()[name = tensor<string, []>("input_pad_0"), val = tensor<int32, [4]>([0, 0, 0, 0])];
            tensor<int32, [2]> input_dilations_0 = const()[name = tensor<string, []>("input_dilations_0"), val = tensor<int32, [2]>([1, 1])];
            tensor<int32, []> input_groups_0 = const()[name = tensor<string, []>("input_groups_0"), val = tensor<int32, []>(1)];
            tensor<fp16, [3, 16, 1, 1]> outc_conv_weight_to_fp16 = const()[name = tensor<string, []>("outc_conv_weight_to_fp16"), val = tensor<fp16, [3, 16, 1, 1]>(BLOBFILE(path = tensor<string, []>("@model_path/weights/weight.bin"), offset = tensor<uint64, []>(24319744)))];
            tensor<fp16, [3]> outc_conv_bias_to_fp16 = const()[name = tensor<string, []>("outc_conv_bias_to_fp16"), val = tensor<fp16, [3]>([-0x1.75cp-2, -0x1.274p-2, -0x1.7c8p-5])];
            tensor<fp16, [1, 3, 320, 320]> input_cast_fp16 = conv(bias = outc_conv_bias_to_fp16, dilations = input_dilations_0, groups = input_groups_0, pad = input_pad_0, pad_type = input_pad_type_0, strides = input_strides_0, weight = outc_conv_weight_to_fp16, x = input_499_cast_fp16)[name = tensor<string, []>("input_cast_fp16")];
            tensor<fp16, [1, 3, 320, 320]> var_1677_cast_fp16 = sigmoid(x = input_cast_fp16)[name = tensor<string, []>("op_1677_cast_fp16")];
            tensor<string, []> var_1677_cast_fp16_to_fp32_dtype_0 = const()[name = tensor<string, []>("op_1677_cast_fp16_to_fp32_dtype_0"), val = tensor<string, []>("fp32")];
            tensor<fp32, [1, 3, 320, 320]> var_1677 = cast(dtype = var_1677_cast_fp16_to_fp32_dtype_0, x = var_1677_cast_fp16)[name = tensor<string, []>("cast_0")];
        } -> (var_1677);
}